INFO:[AlmostAnyTextClassifier]:DatasetDict({
    train: Dataset({
        features: ['index', 'text', 'label'],
        num_rows: 35000
    })
    val: Dataset({
        features: ['index', 'text', 'label'],
        num_rows: 5000
    })
    test: Dataset({
        features: ['index', 'text', 'label'],
        num_rows: 10000
    })
})
INFO:[AlmostAnyTextClassifier]:AlmostAnyTextClassifierLitModel(
  (pretrained_model): DistilBertForSequenceClassification(
    (distilbert): DistilBertModel(
      (embeddings): Embeddings(
        (word_embeddings): Embedding(30522, 768, padding_idx=0)
        (position_embeddings): Embedding(512, 768)
        (LayerNorm): LayerNorm((768,), eps=1e-12, elementwise_affine=True)
        (dropout): Dropout(p=0.1, inplace=False)
      )
      (transformer): Transformer(
        (layer): ModuleList(
          (0-5): 6 x TransformerBlock(
            (attention): MultiHeadSelfAttention(
              (dropout): Dropout(p=0.1, inplace=False)
              (q_lin): Linear(in_features=768, out_features=768, bias=True)
              (k_lin): Linear(in_features=768, out_features=768, bias=True)
              (v_lin): Linear(in_features=768, out_features=768, bias=True)
              (out_lin): Linear(in_features=768, out_features=768, bias=True)
            )
            (sa_layer_norm): LayerNorm((768,), eps=1e-12, elementwise_affine=True)
            (ffn): FFN(
              (dropout): Dropout(p=0.1, inplace=False)
              (lin1): Linear(in_features=768, out_features=3072, bias=True)
              (lin2): Linear(in_features=3072, out_features=768, bias=True)
              (activation): GELUActivation()
            )
            (output_layer_norm): LayerNorm((768,), eps=1e-12, elementwise_affine=True)
          )
        )
      )
    )
    (pre_classifier): Linear(in_features=768, out_features=768, bias=True)
    (classifier): Linear(in_features=768, out_features=2, bias=True)
    (dropout): Dropout(p=0.2, inplace=False)
  )
  (dropout): Dropout(p=0.3, inplace=False)
)
