…
02-Nov-23 08:04:16:TwoTowerRankerRecommenderModel:https://huggingface.co:443 "HEAD /distilbert-base-uncased/resolve/main/config.json HTTP/1.1" 200 0
02-Nov-23 08:04:17:TwoTowerRankerRecommenderModel:https://huggingface.co:443 "HEAD /distilbert-base-uncased/resolve/main/config.json HTTP/1.1" 200 0
02-Nov-23 08:04:17:TwoTowerRankerRecommenderModel:https://huggingface.co:443 "HEAD /distilbert-base-uncased/resolve/main/config.json HTTP/1.1" 200 0
02-Nov-23 08:04:18:TwoTowerRankerRecommenderModel:model lightning TwoTowerRecommenderRankerLitModel(
  (user_preference_model): UserPreferencesModel(
    (pretrained_model): DistilBertModel(
      (embeddings): Embeddings(
        (word_embeddings): Embedding(30522, 768, padding_idx=0)
        (position_embeddings): Embedding(512, 768)
        (LayerNorm): LayerNorm((768,), eps=1e-12, elementwise_affine=True)
        (dropout): Dropout(p=0.1, inplace=False)
      )
      (transformer): Transformer(
        (layer): ModuleList(
          (0-5): 6 x TransformerBlock(
            (attention): MultiHeadSelfAttention(
              (dropout): Dropout(p=0.1, inplace=False)
              (q_lin): Linear(in_features=768, out_features=768, bias=True)
              (k_lin): Linear(in_features=768, out_features=768, bias=True)
              (v_lin): Linear(in_features=768, out_features=768, bias=True)
              (out_lin): Linear(in_features=768, out_features=768, bias=True)
            )
            (sa_layer_norm): LayerNorm((768,), eps=1e-12, elementwise_affine=True)
            (ffn): FFN(
              (dropout): Dropout(p=0.1, inplace=False)
              (lin1): Linear(in_features=768, out_features=3072, bias=True)
              (lin2): Linear(in_features=3072, out_features=768, bias=True)
              (activation): GELUActivation()
            )
            (output_layer_norm): LayerNorm((768,), eps=1e-12, elementwise_affine=True)
          )
        )
      )
    )
    (linear): Linear(in_features=768, out_features=768, bias=True)
    (dropout): Dropout(p=0.3, inplace=False)
    (clf): Linear(in_features=768, out_features=384, bias=True)
  )
  (content_preference_model): ContentPreferencesModel(
    (pretrained_model): DistilBertModel(
      (embeddings): Embeddings(
        (word_embeddings): Embedding(30522, 768, padding_idx=0)
        (position_embeddings): Embedding(512, 768)
        (LayerNorm): LayerNorm((768,), eps=1e-12, elementwise_affine=True)
        (dropout): Dropout(p=0.1, inplace=False)
      )
      (transformer): Transformer(
        (layer): ModuleList(
          (0-5): 6 x TransformerBlock(
            (attention): MultiHeadSelfAttention(
              (dropout): Dropout(p=0.1, inplace=False)
              (q_lin): Linear(in_features=768, out_features=768, bias=True)
              (k_lin): Linear(in_features=768, out_features=768, bias=True)
              (v_lin): Linear(in_features=768, out_features=768, bias=True)
              (out_lin): Linear(in_features=768, out_features=768, bias=True)
            )
            (sa_layer_norm): LayerNorm((768,), eps=1e-12, elementwise_affine=True)
            (ffn): FFN(
              (dropout): Dropout(p=0.1, inplace=False)
              (lin1): Linear(in_features=768, out_features=3072, bias=True)
              (lin2): Linear(in_features=3072, out_features=768, bias=True)
              (activation): GELUActivation()
            )
            (output_layer_norm): LayerNorm((768,), eps=1e-12, elementwise_affine=True)
          )
        )
      )
    )
    (linear): Linear(in_features=768, out_features=768, bias=True)
    (dropout): Dropout(p=0.3, inplace=False)
    (clf): Linear(in_features=768, out_features=384, bias=True)
  )
  (layer_normalizer): LayerNorm((768,), eps=1e-05, elementwise_affine=True)
  (combiner): Linear(in_features=768, out_features=768, bias=True)
  (dropout): Dropout(p=0.3, inplace=False)
  (classifier): Linear(in_features=768, out_features=768, bias=True)
  (rating_predictor): Linear(in_features=768, out_features=5, bias=True)
  (softmax): Softmax(dim=1)
)
02-Nov-23 08:04:18:TwoTowerRankerRecommenderModel:user_logits_size=torch.Size([32, 384])
02-Nov-23 08:04:18:TwoTowerRankerRecommenderModel:content_logits_size=torch.Size([32, 384])
02-Nov-23 08:04:18:TwoTowerRankerRecommenderModel:matrix-multipication = tensor([[ 0.5064,  2.0064,  0.5940,  ..., -1.1013, -1.7029,  0.6769],
        [ 0.3934,  1.6376,  0.4420,  ..., -0.9210, -1.3875,  0.5401],
…
04-Nov-23 09:12:12:TwoTowerRankerRecommenderModel:the rating argmax = tensor([4, 4, 4, 4, 4, 4, 4, 4, 4, 4, 4, 4, 4, 4, 4, 4, 4, 4, 4, 4, 2, 4, 4, 4,
        4, 4, 4, 4, 4, 4, 4, 4, 4, 4, 4, 4, 4, 4, 4, 4, 4, 4, 4, 4, 4, 4, 4, 4,
        4, 4, 4, 4, 4, 4, 4, 4, 4, 4, 4, 4, 4, 4, 4, 4]) , original rating = tensor([0, 4, 4, 1, 2, 2, 3, 3, 3, 2, 2, 3, 1, 2, 3, 2, 0, 2, 3, 0, 2, 2, 1, 1,
        3, 3, 3, 4, 2, 0, 3, 3, 2, 4, 1, 3, 3, 3, 4, 2, 1, 1, 0, 3, 3, 0, 3, 4,
        2, 3, 3, 2, 2, 2, 0, 3, 3, 2, 3, 2, 3, 3, 3, 3])
04-Nov-23 09:12:12:TwoTowerRankerRecommenderModel:BidirectionEncoderDecoderTransformer(
  (embedding): JointEmbeddingLayer(
    (token_emb): Embedding(30522, 128)
    (segment_emb): Embedding(30522, 128)
    (norm): LayerNorm((128,), eps=1e-05, elementwise_affine=True)
  )
  (encoder): EncoderLayer(
    (attn): MultiheadAttention(
      (out_proj): NonDynamicallyQuantizableLinear(in_features=128, out_features=128, bias=True)
    )
    (ffn): Sequential(
      (0): Linear(in_features=128, out_features=128, bias=True)
      (1): Dropout(p=0.25, inplace=False)
      (2): GELU(approximate='none')
      (3): Linear(in_features=128, out_features=128, bias=True)
      (4): Dropout(p=0.25, inplace=False)
    )
    (norm): LayerNorm((128,), eps=1e-05, elementwise_affine=True)
  )
  (token_prediction_layer): Linear(in_features=128, out_features=30522, bias=True)
  (softmax): LogSoftmax(dim=-1)
  (classifier): Linear(in_features=128, out_features=11, bias=True)
)
04-Nov-23 09:12:12:TwoTowerRankerRecommenderModel:model training will be initated....
04-Nov-23 09:12:13:TwoTowerRankerRecommenderModel:user_logits_size=torch.Size([16, 384])
04-Nov-23 09:12:13:TwoTowerRankerRecommenderModel:content_logits_size=torch.Size([16, 384])
04-Nov-23 09:12:13:TwoTowerRankerRecommenderModel:matrix-multipication = tensor([[ 0.5155, -0.9464,  0.1172,  ...,  0.6007,  1.3648,  0.6936],
…
04-Nov-23 09:13:02:TwoTowerRankerRecommenderModel:the rating argmax = tensor([4, 4, 4, 4, 0, 4, 4, 4, 0, 4, 4, 4, 4, 4, 3, 4, 4, 3, 4, 4, 4, 4, 4, 4,
        4, 4, 4, 3, 4, 0, 4, 4, 4, 0, 4, 4, 4, 0, 4, 4, 0, 4, 4, 4, 4, 4, 4, 4,
        4, 4, 4, 0, 4, 4, 4, 0, 4, 4, 4, 4, 4, 4, 4, 4]) , original rating = tensor([2, 1, 4, 4, 3, 3, 0, 1, 2, 3, 3, 3, 3, 0, 3, 4, 2, 3, 3, 2, 1, 4, 2, 1,
        3, 3, 4, 2, 3, 1, 3, 3, 4, 3, 4, 3, 3, 3, 4, 4, 4, 4, 2, 3, 3, 3, 2, 4,
        2, 4, 2, 2, 3, 2, 2, 4, 3, 3, 4, 4, 0, 2, 3, 1])
04-Nov-23 09:13:02:TwoTowerRankerRecommenderModel:BERT(
  (embedding): JointEmbeddingLayer(
    (token_emb): Embedding(30522, 128)
    (segment_emb): Embedding(30522, 128)
    (norm): LayerNorm((128,), eps=1e-05, elementwise_affine=True)
  )
  (encoder): Encoder(
    (attention): MultiHeadAttention(
      (heads): ModuleList(
        (0-10): 11 x AttentionHead(
          (q): Linear(in_features=128, out_features=128, bias=True)
          (k): Linear(in_features=128, out_features=128, bias=True)
          (v): Linear(in_features=128, out_features=128, bias=True)
        )
      )
      (linear): Linear(in_features=1408, out_features=128, bias=True)
      (norm): LayerNorm((128,), eps=1e-05, elementwise_affine=True)
    )
    (feed_forward): Sequential(
      (0): Linear(in_features=128, out_features=128, bias=True)
      (1): Dropout(p=0.1, inplace=False)
      (2): GELU(approximate='none')
      (3): Linear(in_features=128, out_features=128, bias=True)
      (4): Dropout(p=0.1, inplace=False)
    )
    (norm): LayerNorm((128,), eps=1e-05, elementwise_affine=True)
  )
  (token_prediction_layer): Linear(in_features=128, out_features=30522, bias=True)
  (softmax): LogSoftmax(dim=-1)
  (classification_layer): Linear(in_features=128, out_features=2, bias=True)
)
04-Nov-23 09:13:03:TwoTowerRankerRecommenderModel:model training will be initated....
04-Nov-23 09:13:03:TwoTowerRankerRecommenderModel:user_logits_size=torch.Size([16, 384])
04-Nov-23 09:13:03:TwoTowerRankerRecommenderModel:content_logits_size=torch.Size([16, 384])
04-Nov-23 09:13:03:TwoTowerRankerRecommenderModel:matrix-multipication = tensor([[-0.0078, -0.0689, -0.2313,  ...,  0.1607, -0.8922,  0.0425],
…
04-Nov-23 09:36:09:TwoTowerRankerRecommenderModel:{'opts': Namespace(datasetFolder='./datasets/ml-100k', modelName='beginner-swan', pretrainedHfModelName='distilbert-base-uncased', train_bs=16, val_bs=64, lr=0.001, version='0227', n_rows=10000), 'runtime_args': ['--worker=3', '--device=auto']}
04-Nov-23 09:36:10:TwoTowerRankerRecommenderModel:{'train_size': 7500, 'val_size': 2500}
04-Nov-23 09:36:13:TwoTowerRankerRecommenderModel:model lightning TwoTowerRecommenderRankerLitModel(
  (user_preference_model): UserPreferencesModel(
    (pretrained_model): DistilBertModel(
      (embeddings): Embeddings(
        (word_embeddings): Embedding(30522, 768, padding_idx=0)
        (position_embeddings): Embedding(512, 768)
        (LayerNorm): LayerNorm((768,), eps=1e-12, elementwise_affine=True)
        (dropout): Dropout(p=0.1, inplace=False)
      )
      (transformer): Transformer(
        (layer): ModuleList(
          (0-5): 6 x TransformerBlock(
            (attention): MultiHeadSelfAttention(
              (dropout): Dropout(p=0.1, inplace=False)
              (q_lin): Linear(in_features=768, out_features=768, bias=True)
              (k_lin): Linear(in_features=768, out_features=768, bias=True)
              (v_lin): Linear(in_features=768, out_features=768, bias=True)
              (out_lin): Linear(in_features=768, out_features=768, bias=True)
            )
            (sa_layer_norm): LayerNorm((768,), eps=1e-12, elementwise_affine=True)
            (ffn): FFN(
              (dropout): Dropout(p=0.1, inplace=False)
              (lin1): Linear(in_features=768, out_features=3072, bias=True)
              (lin2): Linear(in_features=3072, out_features=768, bias=True)
              (activation): GELUActivation()
            )
            (output_layer_norm): LayerNorm((768,), eps=1e-12, elementwise_affine=True)
          )
        )
      )
    )
    (linear): Linear(in_features=768, out_features=768, bias=True)
    (dropout): Dropout(p=0.3, inplace=False)
    (clf): Linear(in_features=768, out_features=384, bias=True)
  )
  (content_preference_model): ContentPreferencesModel(
    (pretrained_model): DistilBertModel(
      (embeddings): Embeddings(
        (word_embeddings): Embedding(30522, 768, padding_idx=0)
        (position_embeddings): Embedding(512, 768)
        (LayerNorm): LayerNorm((768,), eps=1e-12, elementwise_affine=True)
        (dropout): Dropout(p=0.1, inplace=False)
      )
      (transformer): Transformer(
        (layer): ModuleList(
          (0-5): 6 x TransformerBlock(
            (attention): MultiHeadSelfAttention(
              (dropout): Dropout(p=0.1, inplace=False)
              (q_lin): Linear(in_features=768, out_features=768, bias=True)
              (k_lin): Linear(in_features=768, out_features=768, bias=True)
              (v_lin): Linear(in_features=768, out_features=768, bias=True)
              (out_lin): Linear(in_features=768, out_features=768, bias=True)
            )
            (sa_layer_norm): LayerNorm((768,), eps=1e-12, elementwise_affine=True)
            (ffn): FFN(
              (dropout): Dropout(p=0.1, inplace=False)
              (lin1): Linear(in_features=768, out_features=3072, bias=True)
              (lin2): Linear(in_features=3072, out_features=768, bias=True)
              (activation): GELUActivation()
            )
            (output_layer_norm): LayerNorm((768,), eps=1e-12, elementwise_affine=True)
          )
        )
      )
    )
    (linear): Linear(in_features=768, out_features=768, bias=True)
    (dropout): Dropout(p=0.3, inplace=False)
    (clf): Linear(in_features=768, out_features=384, bias=True)
  )
  (layer_normalizer): LayerNorm((768,), eps=1e-05, elementwise_affine=True)
  (combiner): Linear(in_features=768, out_features=768, bias=True)
  (dropout): Dropout(p=0.3, inplace=False)
  (classifier): Linear(in_features=768, out_features=768, bias=True)
  (rating_predictor): Linear(in_features=768, out_features=5, bias=True)
  (softmax): Softmax(dim=1)
)
04-Nov-23 09:36:38:TwoTowerRankerRecommenderModel:{'opts': Namespace(datasetFolder='./datasets/ml-100k', modelName='beginner-swan', pretrainedHfModelName='distilbert-base-uncased', train_bs=16, val_bs=64, lr=0.001, version='9003', n_rows=1000), 'runtime_args': ['--worker=3', '--device=auto']}
04-Nov-23 09:36:39:TwoTowerRankerRecommenderModel:{'train_size': 750, 'val_size': 250}
04-Nov-23 09:36:41:TwoTowerRankerRecommenderModel:model lightning TwoTowerRecommenderRankerLitModel(
  (user_preference_model): UserPreferencesModel(
    (pretrained_model): DistilBertModel(
      (embeddings): Embeddings(
        (word_embeddings): Embedding(30522, 768, padding_idx=0)
        (position_embeddings): Embedding(512, 768)
        (LayerNorm): LayerNorm((768,), eps=1e-12, elementwise_affine=True)
        (dropout): Dropout(p=0.1, inplace=False)
      )
      (transformer): Transformer(
        (layer): ModuleList(
          (0-5): 6 x TransformerBlock(
            (attention): MultiHeadSelfAttention(
              (dropout): Dropout(p=0.1, inplace=False)
              (q_lin): Linear(in_features=768, out_features=768, bias=True)
              (k_lin): Linear(in_features=768, out_features=768, bias=True)
              (v_lin): Linear(in_features=768, out_features=768, bias=True)
              (out_lin): Linear(in_features=768, out_features=768, bias=True)
            )
            (sa_layer_norm): LayerNorm((768,), eps=1e-12, elementwise_affine=True)
            (ffn): FFN(
              (dropout): Dropout(p=0.1, inplace=False)
              (lin1): Linear(in_features=768, out_features=3072, bias=True)
              (lin2): Linear(in_features=3072, out_features=768, bias=True)
              (activation): GELUActivation()
            )
            (output_layer_norm): LayerNorm((768,), eps=1e-12, elementwise_affine=True)
          )
        )
      )
    )
    (linear): Linear(in_features=768, out_features=768, bias=True)
    (dropout): Dropout(p=0.3, inplace=False)
    (clf): Linear(in_features=768, out_features=384, bias=True)
  )
  (content_preference_model): ContentPreferencesModel(
    (pretrained_model): DistilBertModel(
      (embeddings): Embeddings(
        (word_embeddings): Embedding(30522, 768, padding_idx=0)
        (position_embeddings): Embedding(512, 768)
        (LayerNorm): LayerNorm((768,), eps=1e-12, elementwise_affine=True)
        (dropout): Dropout(p=0.1, inplace=False)
      )
      (transformer): Transformer(
        (layer): ModuleList(
          (0-5): 6 x TransformerBlock(
            (attention): MultiHeadSelfAttention(
              (dropout): Dropout(p=0.1, inplace=False)
              (q_lin): Linear(in_features=768, out_features=768, bias=True)
              (k_lin): Linear(in_features=768, out_features=768, bias=True)
              (v_lin): Linear(in_features=768, out_features=768, bias=True)
              (out_lin): Linear(in_features=768, out_features=768, bias=True)
            )
            (sa_layer_norm): LayerNorm((768,), eps=1e-12, elementwise_affine=True)
            (ffn): FFN(
              (dropout): Dropout(p=0.1, inplace=False)
              (lin1): Linear(in_features=768, out_features=3072, bias=True)
              (lin2): Linear(in_features=3072, out_features=768, bias=True)
              (activation): GELUActivation()
            )
            (output_layer_norm): LayerNorm((768,), eps=1e-12, elementwise_affine=True)
          )
        )
      )
    )
    (linear): Linear(in_features=768, out_features=768, bias=True)
    (dropout): Dropout(p=0.3, inplace=False)
    (clf): Linear(in_features=768, out_features=384, bias=True)
  )
  (layer_normalizer): LayerNorm((768,), eps=1e-05, elementwise_affine=True)
  (combiner): Linear(in_features=768, out_features=768, bias=True)
  (dropout): Dropout(p=0.3, inplace=False)
  (classifier): Linear(in_features=768, out_features=768, bias=True)
  (rating_predictor): Linear(in_features=768, out_features=5, bias=True)
  (softmax): Softmax(dim=1)
)
04-Nov-23 09:37:11:TwoTowerRankerRecommenderModel:{'opts': Namespace(datasetFolder='./datasets/ml-100k', modelName='beginner-swan', pretrainedHfModelName='distilbert-base-uncased', train_bs=16, val_bs=64, lr=0.001, version='6812', n_rows=1000), 'runtime_args': ['--worker=3', '--device=auto']}
04-Nov-23 09:37:11:TwoTowerRankerRecommenderModel:{'train_size': 750, 'val_size': 250}
04-Nov-23 09:37:13:TwoTowerRankerRecommenderModel:model lightning TwoTowerRecommenderRankerLitModel(
  (user_preference_model): UserPreferencesModel(
    (pretrained_model): DistilBertModel(
      (embeddings): Embeddings(
        (word_embeddings): Embedding(30522, 768, padding_idx=0)
        (position_embeddings): Embedding(512, 768)
        (LayerNorm): LayerNorm((768,), eps=1e-12, elementwise_affine=True)
        (dropout): Dropout(p=0.1, inplace=False)
      )
      (transformer): Transformer(
        (layer): ModuleList(
          (0-5): 6 x TransformerBlock(
            (attention): MultiHeadSelfAttention(
              (dropout): Dropout(p=0.1, inplace=False)
              (q_lin): Linear(in_features=768, out_features=768, bias=True)
              (k_lin): Linear(in_features=768, out_features=768, bias=True)
              (v_lin): Linear(in_features=768, out_features=768, bias=True)
              (out_lin): Linear(in_features=768, out_features=768, bias=True)
            )
            (sa_layer_norm): LayerNorm((768,), eps=1e-12, elementwise_affine=True)
            (ffn): FFN(
              (dropout): Dropout(p=0.1, inplace=False)
              (lin1): Linear(in_features=768, out_features=3072, bias=True)
              (lin2): Linear(in_features=3072, out_features=768, bias=True)
              (activation): GELUActivation()
            )
            (output_layer_norm): LayerNorm((768,), eps=1e-12, elementwise_affine=True)
          )
        )
      )
    )
    (linear): Linear(in_features=768, out_features=768, bias=True)
    (dropout): Dropout(p=0.3, inplace=False)
    (clf): Linear(in_features=768, out_features=384, bias=True)
  )
  (content_preference_model): ContentPreferencesModel(
    (pretrained_model): DistilBertModel(
      (embeddings): Embeddings(
        (word_embeddings): Embedding(30522, 768, padding_idx=0)
        (position_embeddings): Embedding(512, 768)
        (LayerNorm): LayerNorm((768,), eps=1e-12, elementwise_affine=True)
        (dropout): Dropout(p=0.1, inplace=False)
      )
      (transformer): Transformer(
        (layer): ModuleList(
          (0-5): 6 x TransformerBlock(
            (attention): MultiHeadSelfAttention(
              (dropout): Dropout(p=0.1, inplace=False)
              (q_lin): Linear(in_features=768, out_features=768, bias=True)
              (k_lin): Linear(in_features=768, out_features=768, bias=True)
              (v_lin): Linear(in_features=768, out_features=768, bias=True)
              (out_lin): Linear(in_features=768, out_features=768, bias=True)
            )
            (sa_layer_norm): LayerNorm((768,), eps=1e-12, elementwise_affine=True)
            (ffn): FFN(
              (dropout): Dropout(p=0.1, inplace=False)
              (lin1): Linear(in_features=768, out_features=3072, bias=True)
              (lin2): Linear(in_features=3072, out_features=768, bias=True)
              (activation): GELUActivation()
            )
            (output_layer_norm): LayerNorm((768,), eps=1e-12, elementwise_affine=True)
          )
        )
      )
    )
    (linear): Linear(in_features=768, out_features=768, bias=True)
    (dropout): Dropout(p=0.3, inplace=False)
    (clf): Linear(in_features=768, out_features=384, bias=True)
  )
  (layer_normalizer): LayerNorm((768,), eps=1e-05, elementwise_affine=True)
  (combiner): Linear(in_features=768, out_features=768, bias=True)
  (dropout): Dropout(p=0.3, inplace=False)
  (classifier): Linear(in_features=768, out_features=768, bias=True)
  (rating_predictor): Linear(in_features=768, out_features=5, bias=True)
  (softmax): Softmax(dim=1)
)
04-Nov-23 09:37:16:TwoTowerRankerRecommenderModel:model training will be initated....
04-Nov-23 09:38:55:TwoTowerRankerRecommenderModel:model training has been finished... outputs has been saved into the root-directory of current folder....
04-Nov-23 09:41:10:TwoTowerRankerRecommenderModel:{'opts': Namespace(datasetFolder='./datasets/ml-100k', modelName='beginner-swan', pretrainedHfModelName='distilbert-base-uncased', train_bs=16, val_bs=64, lr=0.0003, version='2964', n_rows=1000), 'runtime_args': ['--worker=3', '--device=auto']}
…
11-Nov-23 17:58:13:TwoTowerRankerRecommenderModel:{'opts': Namespace(datasetFolder='./datasets/ml-100k', modelName='beginner-swan', pretrainedHfModelName='distilbert-base-uncased', train_bs=16, val_bs=64, lr=0.0003, version='3200', n_rows=10000), 'runtime_args': ['--worker=3', '--device=auto']}
11-Nov-23 17:58:13:TwoTowerRankerRecommenderModel:{'train_size': 7500, 'val_size': 2500}
11-Nov-23 17:58:16:TwoTowerRankerRecommenderModel:model lightning TwoTowerRecommenderRankerLitModel(
  (user_preference_model): UserPreferencesModel(
    (pretrained_model): DistilBertModel(
      (embeddings): Embeddings(
        (word_embeddings): Embedding(30522, 768, padding_idx=0)
        (position_embeddings): Embedding(512, 768)
        (LayerNorm): LayerNorm((768,), eps=1e-12, elementwise_affine=True)
        (dropout): Dropout(p=0.1, inplace=False)
      )
      (transformer): Transformer(
        (layer): ModuleList(
          (0-5): 6 x TransformerBlock(
            (attention): MultiHeadSelfAttention(
              (dropout): Dropout(p=0.1, inplace=False)
              (q_lin): Linear(in_features=768, out_features=768, bias=True)
              (k_lin): Linear(in_features=768, out_features=768, bias=True)
              (v_lin): Linear(in_features=768, out_features=768, bias=True)
              (out_lin): Linear(in_features=768, out_features=768, bias=True)
            )
            (sa_layer_norm): LayerNorm((768,), eps=1e-12, elementwise_affine=True)
            (ffn): FFN(
              (dropout): Dropout(p=0.1, inplace=False)
              (lin1): Linear(in_features=768, out_features=3072, bias=True)
              (lin2): Linear(in_features=3072, out_features=768, bias=True)
              (activation): GELUActivation()
            )
            (output_layer_norm): LayerNorm((768,), eps=1e-12, elementwise_affine=True)
          )
        )
      )
    )
    (linear): Linear(in_features=768, out_features=768, bias=True)
    (dropout): Dropout(p=0.3, inplace=False)
    (clf): Linear(in_features=768, out_features=384, bias=True)
  )
  (content_preference_model): ContentPreferencesModel(
    (pretrained_model): DistilBertModel(
      (embeddings): Embeddings(
        (word_embeddings): Embedding(30522, 768, padding_idx=0)
        (position_embeddings): Embedding(512, 768)
        (LayerNorm): LayerNorm((768,), eps=1e-12, elementwise_affine=True)
        (dropout): Dropout(p=0.1, inplace=False)
      )
      (transformer): Transformer(
        (layer): ModuleList(
          (0-5): 6 x TransformerBlock(
            (attention): MultiHeadSelfAttention(
              (dropout): Dropout(p=0.1, inplace=False)
              (q_lin): Linear(in_features=768, out_features=768, bias=True)
              (k_lin): Linear(in_features=768, out_features=768, bias=True)
              (v_lin): Linear(in_features=768, out_features=768, bias=True)
              (out_lin): Linear(in_features=768, out_features=768, bias=True)
            )
            (sa_layer_norm): LayerNorm((768,), eps=1e-12, elementwise_affine=True)
            (ffn): FFN(
              (dropout): Dropout(p=0.1, inplace=False)
              (lin1): Linear(in_features=768, out_features=3072, bias=True)
              (lin2): Linear(in_features=3072, out_features=768, bias=True)
              (activation): GELUActivation()
            )
            (output_layer_norm): LayerNorm((768,), eps=1e-12, elementwise_affine=True)
          )
        )
      )
    )
    (linear): Linear(in_features=768, out_features=768, bias=True)
    (dropout): Dropout(p=0.3, inplace=False)
    (clf): Linear(in_features=768, out_features=384, bias=True)
  )
  (layer_normalizer): LayerNorm((768,), eps=1e-05, elementwise_affine=True)
  (light_se): SqueezeExcitationModel(
    (excitation_layer): Sequential(
      (0): Linear(in_features=768, out_features=3, bias=False)
      (1): ReLU()
      (2): Linear(in_features=3, out_features=768, bias=False)
      (3): ReLU()
    )
  )
  (combiner): Linear(in_features=768, out_features=768, bias=True)
  (dropout): Dropout(p=0.3, inplace=False)
  (classifier): Linear(in_features=768, out_features=768, bias=True)
  (rating_predictor): Linear(in_features=768, out_features=5, bias=True)
  (softmax): Softmax(dim=1)
)
11-Nov-23 17:58:43:TwoTowerRankerRecommenderModel:{'opts': Namespace(datasetFolder='./datasets/ml-100k', modelName='beginner-swan', pretrainedHfModelName='distilbert-base-uncased', train_bs=16, val_bs=64, lr=0.0003, version='6036', n_rows=10000), 'runtime_args': ['--worker=3', '--device=auto']}
11-Nov-23 17:58:44:TwoTowerRankerRecommenderModel:{'train_size': 7500, 'val_size': 2500}
11-Nov-23 17:58:47:TwoTowerRankerRecommenderModel:model lightning TwoTowerRecommenderRankerLitModel(
  (user_preference_model): UserPreferencesModel(
    (pretrained_model): DistilBertModel(
      (embeddings): Embeddings(
        (word_embeddings): Embedding(30522, 768, padding_idx=0)
        (position_embeddings): Embedding(512, 768)
        (LayerNorm): LayerNorm((768,), eps=1e-12, elementwise_affine=True)
        (dropout): Dropout(p=0.1, inplace=False)
      )
      (transformer): Transformer(
        (layer): ModuleList(
          (0-5): 6 x TransformerBlock(
            (attention): MultiHeadSelfAttention(
              (dropout): Dropout(p=0.1, inplace=False)
              (q_lin): Linear(in_features=768, out_features=768, bias=True)
              (k_lin): Linear(in_features=768, out_features=768, bias=True)
              (v_lin): Linear(in_features=768, out_features=768, bias=True)
              (out_lin): Linear(in_features=768, out_features=768, bias=True)
            )
            (sa_layer_norm): LayerNorm((768,), eps=1e-12, elementwise_affine=True)
            (ffn): FFN(
              (dropout): Dropout(p=0.1, inplace=False)
              (lin1): Linear(in_features=768, out_features=3072, bias=True)
              (lin2): Linear(in_features=3072, out_features=768, bias=True)
              (activation): GELUActivation()
            )
            (output_layer_norm): LayerNorm((768,), eps=1e-12, elementwise_affine=True)
          )
        )
      )
    )
    (linear): Linear(in_features=768, out_features=768, bias=True)
    (dropout): Dropout(p=0.3, inplace=False)
    (clf): Linear(in_features=768, out_features=384, bias=True)
  )
  (content_preference_model): ContentPreferencesModel(
    (pretrained_model): DistilBertModel(
      (embeddings): Embeddings(
        (word_embeddings): Embedding(30522, 768, padding_idx=0)
        (position_embeddings): Embedding(512, 768)
        (LayerNorm): LayerNorm((768,), eps=1e-12, elementwise_affine=True)
        (dropout): Dropout(p=0.1, inplace=False)
      )
      (transformer): Transformer(
        (layer): ModuleList(
          (0-5): 6 x TransformerBlock(
            (attention): MultiHeadSelfAttention(
              (dropout): Dropout(p=0.1, inplace=False)
              (q_lin): Linear(in_features=768, out_features=768, bias=True)
              (k_lin): Linear(in_features=768, out_features=768, bias=True)
              (v_lin): Linear(in_features=768, out_features=768, bias=True)
              (out_lin): Linear(in_features=768, out_features=768, bias=True)
            )
            (sa_layer_norm): LayerNorm((768,), eps=1e-12, elementwise_affine=True)
            (ffn): FFN(
              (dropout): Dropout(p=0.1, inplace=False)
              (lin1): Linear(in_features=768, out_features=3072, bias=True)
              (lin2): Linear(in_features=3072, out_features=768, bias=True)
              (activation): GELUActivation()
            )
            (output_layer_norm): LayerNorm((768,), eps=1e-12, elementwise_affine=True)
          )
        )
      )
    )
    (linear): Linear(in_features=768, out_features=768, bias=True)
    (dropout): Dropout(p=0.3, inplace=False)
    (clf): Linear(in_features=768, out_features=384, bias=True)
  )
  (layer_normalizer): LayerNorm((768,), eps=1e-05, elementwise_affine=True)
  (light_se): SqueezeExcitationModel(
    (excitation_layer): Sequential(
      (0): Linear(in_features=768, out_features=3, bias=False)
      (1): ReLU()
      (2): Linear(in_features=3, out_features=768, bias=False)
      (3): ReLU()
    )
  )
  (combiner): Linear(in_features=768, out_features=768, bias=True)
  (dropout): Dropout(p=0.3, inplace=False)
  (classifier): Linear(in_features=768, out_features=768, bias=True)
  (rating_predictor): Linear(in_features=768, out_features=5, bias=True)
  (softmax): Softmax(dim=1)
)
11-Nov-23 18:04:41:TwoTowerRankerRecommenderModel:{'opts': Namespace(datasetFolder='./datasets/ml-100k', modelName='beginner-swan', pretrainedHfModelName='distilbert-base-uncased', train_bs=16, val_bs=64, lr=0.0003, version='3795', n_rows=10000), 'runtime_args': ['--worker=3', '--device=auto']}
11-Nov-23 18:04:42:TwoTowerRankerRecommenderModel:{'train_size': 7500, 'val_size': 2500}
11-Nov-23 18:04:45:TwoTowerRankerRecommenderModel:model lightning TwoTowerRecommenderRankerLitModel(
  (user_preference_model): UserPreferencesModel(
    (pretrained_model): DistilBertModel(
      (embeddings): Embeddings(
        (word_embeddings): Embedding(30522, 768, padding_idx=0)
        (position_embeddings): Embedding(512, 768)
        (LayerNorm): LayerNorm((768,), eps=1e-12, elementwise_affine=True)
        (dropout): Dropout(p=0.1, inplace=False)
      )
      (transformer): Transformer(
        (layer): ModuleList(
          (0-5): 6 x TransformerBlock(
            (attention): MultiHeadSelfAttention(
              (dropout): Dropout(p=0.1, inplace=False)
              (q_lin): Linear(in_features=768, out_features=768, bias=True)
              (k_lin): Linear(in_features=768, out_features=768, bias=True)
              (v_lin): Linear(in_features=768, out_features=768, bias=True)
              (out_lin): Linear(in_features=768, out_features=768, bias=True)
            )
            (sa_layer_norm): LayerNorm((768,), eps=1e-12, elementwise_affine=True)
            (ffn): FFN(
              (dropout): Dropout(p=0.1, inplace=False)
              (lin1): Linear(in_features=768, out_features=3072, bias=True)
              (lin2): Linear(in_features=3072, out_features=768, bias=True)
              (activation): GELUActivation()
            )
            (output_layer_norm): LayerNorm((768,), eps=1e-12, elementwise_affine=True)
          )
        )
      )
    )
    (linear): Linear(in_features=768, out_features=768, bias=True)
    (dropout): Dropout(p=0.3, inplace=False)
    (clf): Linear(in_features=768, out_features=384, bias=True)
  )
  (content_preference_model): ContentPreferencesModel(
    (pretrained_model): DistilBertModel(
      (embeddings): Embeddings(
        (word_embeddings): Embedding(30522, 768, padding_idx=0)
        (position_embeddings): Embedding(512, 768)
        (LayerNorm): LayerNorm((768,), eps=1e-12, elementwise_affine=True)
        (dropout): Dropout(p=0.1, inplace=False)
      )
      (transformer): Transformer(
        (layer): ModuleList(
          (0-5): 6 x TransformerBlock(
            (attention): MultiHeadSelfAttention(
              (dropout): Dropout(p=0.1, inplace=False)
              (q_lin): Linear(in_features=768, out_features=768, bias=True)
              (k_lin): Linear(in_features=768, out_features=768, bias=True)
              (v_lin): Linear(in_features=768, out_features=768, bias=True)
              (out_lin): Linear(in_features=768, out_features=768, bias=True)
            )
            (sa_layer_norm): LayerNorm((768,), eps=1e-12, elementwise_affine=True)
            (ffn): FFN(
              (dropout): Dropout(p=0.1, inplace=False)
              (lin1): Linear(in_features=768, out_features=3072, bias=True)
              (lin2): Linear(in_features=3072, out_features=768, bias=True)
              (activation): GELUActivation()
            )
            (output_layer_norm): LayerNorm((768,), eps=1e-12, elementwise_affine=True)
          )
        )
      )
    )
    (linear): Linear(in_features=768, out_features=768, bias=True)
    (dropout): Dropout(p=0.3, inplace=False)
    (clf): Linear(in_features=768, out_features=384, bias=True)
  )
  (layer_normalizer): LayerNorm((768,), eps=1e-05, elementwise_affine=True)
  (light_se): SqueezeExcitationModel(
    (excitation_layer): Sequential(
      (0): Linear(in_features=768, out_features=3, bias=False)
      (1): ReLU()
      (2): Linear(in_features=3, out_features=768, bias=False)
      (3): ReLU()
    )
  )
  (combiner): Linear(in_features=768, out_features=768, bias=True)
  (dropout): Dropout(p=0.3, inplace=False)
  (classifier): Linear(in_features=768, out_features=768, bias=True)
  (rating_predictor): Linear(in_features=768, out_features=5, bias=True)
  (softmax): Softmax(dim=1)
)
11-Nov-23 18:05:25:TwoTowerRankerRecommenderModel:{'opts': Namespace(datasetFolder='./datasets/ml-100k', modelName='beginner-swan', pretrainedHfModelName='distilbert-base-uncased', train_bs=16, val_bs=64, lr=0.0003, version='9564', n_rows=10000), 'runtime_args': ['--worker=3', '--device=auto']}
11-Nov-23 18:05:25:TwoTowerRankerRecommenderModel:{'train_size': 7500, 'val_size': 2500}
11-Nov-23 18:05:47:TwoTowerRankerRecommenderModel:{'opts': Namespace(datasetFolder='./datasets/ml-100k', modelName='beginner-swan', pretrainedHfModelName='distilbert-base-uncased', train_bs=16, val_bs=64, lr=0.0003, version='7115', n_rows=10000), 'runtime_args': ['--worker=3', '--device=auto']}
11-Nov-23 18:05:48:TwoTowerRankerRecommenderModel:{'train_size': 7500, 'val_size': 2500}
11-Nov-23 18:05:50:TwoTowerRankerRecommenderModel:model lightning TwoTowerRecommenderRankerLitModel(
  (user_preference_model): UserPreferencesModel(
    (pretrained_model): DistilBertModel(
      (embeddings): Embeddings(
        (word_embeddings): Embedding(30522, 768, padding_idx=0)
        (position_embeddings): Embedding(512, 768)
        (LayerNorm): LayerNorm((768,), eps=1e-12, elementwise_affine=True)
        (dropout): Dropout(p=0.1, inplace=False)
      )
      (transformer): Transformer(
        (layer): ModuleList(
          (0-5): 6 x TransformerBlock(
            (attention): MultiHeadSelfAttention(
              (dropout): Dropout(p=0.1, inplace=False)
              (q_lin): Linear(in_features=768, out_features=768, bias=True)
              (k_lin): Linear(in_features=768, out_features=768, bias=True)
              (v_lin): Linear(in_features=768, out_features=768, bias=True)
              (out_lin): Linear(in_features=768, out_features=768, bias=True)
            )
            (sa_layer_norm): LayerNorm((768,), eps=1e-12, elementwise_affine=True)
            (ffn): FFN(
              (dropout): Dropout(p=0.1, inplace=False)
              (lin1): Linear(in_features=768, out_features=3072, bias=True)
              (lin2): Linear(in_features=3072, out_features=768, bias=True)
              (activation): GELUActivation()
            )
            (output_layer_norm): LayerNorm((768,), eps=1e-12, elementwise_affine=True)
          )
        )
      )
    )
    (linear): Linear(in_features=768, out_features=768, bias=True)
    (dropout): Dropout(p=0.3, inplace=False)
    (clf): Linear(in_features=768, out_features=384, bias=True)
  )
  (content_preference_model): ContentPreferencesModel(
    (pretrained_model): DistilBertModel(
      (embeddings): Embeddings(
        (word_embeddings): Embedding(30522, 768, padding_idx=0)
        (position_embeddings): Embedding(512, 768)
        (LayerNorm): LayerNorm((768,), eps=1e-12, elementwise_affine=True)
        (dropout): Dropout(p=0.1, inplace=False)
      )
      (transformer): Transformer(
        (layer): ModuleList(
          (0-5): 6 x TransformerBlock(
            (attention): MultiHeadSelfAttention(
              (dropout): Dropout(p=0.1, inplace=False)
              (q_lin): Linear(in_features=768, out_features=768, bias=True)
              (k_lin): Linear(in_features=768, out_features=768, bias=True)
              (v_lin): Linear(in_features=768, out_features=768, bias=True)
              (out_lin): Linear(in_features=768, out_features=768, bias=True)
            )
            (sa_layer_norm): LayerNorm((768,), eps=1e-12, elementwise_affine=True)
            (ffn): FFN(
              (dropout): Dropout(p=0.1, inplace=False)
              (lin1): Linear(in_features=768, out_features=3072, bias=True)
              (lin2): Linear(in_features=3072, out_features=768, bias=True)
              (activation): GELUActivation()
            )
            (output_layer_norm): LayerNorm((768,), eps=1e-12, elementwise_affine=True)
          )
        )
      )
    )
    (linear): Linear(in_features=768, out_features=768, bias=True)
    (dropout): Dropout(p=0.3, inplace=False)
    (clf): Linear(in_features=768, out_features=384, bias=True)
  )
  (layer_normalizer): LayerNorm((768,), eps=1e-05, elementwise_affine=True)
  (light_se): LightSqueezeExicitationModel(
    (softmax): Softmax(dim=1)
    (excitation_layer): Linear(in_features=768, out_features=768, bias=False)
  )
  (combiner): Linear(in_features=768, out_features=768, bias=True)
  (dropout): Dropout(p=0.3, inplace=False)
  (classifier): Linear(in_features=768, out_features=768, bias=True)
  (rating_predictor): Linear(in_features=768, out_features=5, bias=True)
  (softmax): Softmax(dim=1)
)
11-Nov-23 18:06:17:TwoTowerRankerRecommenderModel:{'opts': Namespace(datasetFolder='./datasets/ml-100k', modelName='beginner-swan', pretrainedHfModelName='distilbert-base-uncased', train_bs=16, val_bs=64, lr=0.0003, version='7197', n_rows=10000), 'runtime_args': ['--worker=3', '--device=auto']}
11-Nov-23 18:06:18:TwoTowerRankerRecommenderModel:{'train_size': 7500, 'val_size': 2500}
11-Nov-23 18:06:20:TwoTowerRankerRecommenderModel:model lightning TwoTowerRecommenderRankerLitModel(
  (user_preference_model): UserPreferencesModel(
    (pretrained_model): DistilBertModel(
      (embeddings): Embeddings(
        (word_embeddings): Embedding(30522, 768, padding_idx=0)
        (position_embeddings): Embedding(512, 768)
        (LayerNorm): LayerNorm((768,), eps=1e-12, elementwise_affine=True)
        (dropout): Dropout(p=0.1, inplace=False)
      )
      (transformer): Transformer(
        (layer): ModuleList(
          (0-5): 6 x TransformerBlock(
            (attention): MultiHeadSelfAttention(
              (dropout): Dropout(p=0.1, inplace=False)
              (q_lin): Linear(in_features=768, out_features=768, bias=True)
              (k_lin): Linear(in_features=768, out_features=768, bias=True)
              (v_lin): Linear(in_features=768, out_features=768, bias=True)
              (out_lin): Linear(in_features=768, out_features=768, bias=True)
            )
            (sa_layer_norm): LayerNorm((768,), eps=1e-12, elementwise_affine=True)
            (ffn): FFN(
              (dropout): Dropout(p=0.1, inplace=False)
              (lin1): Linear(in_features=768, out_features=3072, bias=True)
              (lin2): Linear(in_features=3072, out_features=768, bias=True)
              (activation): GELUActivation()
            )
            (output_layer_norm): LayerNorm((768,), eps=1e-12, elementwise_affine=True)
          )
        )
      )
    )
    (linear): Linear(in_features=768, out_features=768, bias=True)
    (dropout): Dropout(p=0.3, inplace=False)
    (clf): Linear(in_features=768, out_features=384, bias=True)
  )
  (content_preference_model): ContentPreferencesModel(
    (pretrained_model): DistilBertModel(
      (embeddings): Embeddings(
        (word_embeddings): Embedding(30522, 768, padding_idx=0)
        (position_embeddings): Embedding(512, 768)
        (LayerNorm): LayerNorm((768,), eps=1e-12, elementwise_affine=True)
        (dropout): Dropout(p=0.1, inplace=False)
      )
      (transformer): Transformer(
        (layer): ModuleList(
          (0-5): 6 x TransformerBlock(
            (attention): MultiHeadSelfAttention(
              (dropout): Dropout(p=0.1, inplace=False)
              (q_lin): Linear(in_features=768, out_features=768, bias=True)
              (k_lin): Linear(in_features=768, out_features=768, bias=True)
              (v_lin): Linear(in_features=768, out_features=768, bias=True)
              (out_lin): Linear(in_features=768, out_features=768, bias=True)
            )
            (sa_layer_norm): LayerNorm((768,), eps=1e-12, elementwise_affine=True)
            (ffn): FFN(
              (dropout): Dropout(p=0.1, inplace=False)
              (lin1): Linear(in_features=768, out_features=3072, bias=True)
              (lin2): Linear(in_features=3072, out_features=768, bias=True)
              (activation): GELUActivation()
            )
            (output_layer_norm): LayerNorm((768,), eps=1e-12, elementwise_affine=True)
          )
        )
      )
    )
    (linear): Linear(in_features=768, out_features=768, bias=True)
    (dropout): Dropout(p=0.3, inplace=False)
    (clf): Linear(in_features=768, out_features=384, bias=True)
  )
  (layer_normalizer): LayerNorm((768,), eps=1e-05, elementwise_affine=True)
  (light_se): LightSqueezeExicitationModel(
    (softmax): Softmax(dim=1)
    (excitation_layer): Linear(in_features=768, out_features=768, bias=False)
  )
  (combiner): Linear(in_features=768, out_features=768, bias=True)
  (dropout): Dropout(p=0.3, inplace=False)
  (classifier): Linear(in_features=768, out_features=768, bias=True)
  (rating_predictor): Linear(in_features=768, out_features=5, bias=True)
  (softmax): Softmax(dim=1)
)
11-Nov-23 18:07:18:TwoTowerRankerRecommenderModel:{'opts': Namespace(datasetFolder='./datasets/ml-100k', modelName='beginner-swan', pretrainedHfModelName='distilbert-base-uncased', train_bs=16, val_bs=64, lr=0.0003, version='0159', n_rows=10000), 'runtime_args': ['--worker=3', '--device=auto']}
11-Nov-23 18:07:19:TwoTowerRankerRecommenderModel:{'train_size': 7500, 'val_size': 2500}
11-Nov-23 18:07:21:TwoTowerRankerRecommenderModel:model lightning TwoTowerRecommenderRankerLitModel(
  (user_preference_model): UserPreferencesModel(
    (pretrained_model): DistilBertModel(
      (embeddings): Embeddings(
        (word_embeddings): Embedding(30522, 768, padding_idx=0)
        (position_embeddings): Embedding(512, 768)
        (LayerNorm): LayerNorm((768,), eps=1e-12, elementwise_affine=True)
        (dropout): Dropout(p=0.1, inplace=False)
      )
      (transformer): Transformer(
        (layer): ModuleList(
          (0-5): 6 x TransformerBlock(
            (attention): MultiHeadSelfAttention(
              (dropout): Dropout(p=0.1, inplace=False)
              (q_lin): Linear(in_features=768, out_features=768, bias=True)
              (k_lin): Linear(in_features=768, out_features=768, bias=True)
              (v_lin): Linear(in_features=768, out_features=768, bias=True)
              (out_lin): Linear(in_features=768, out_features=768, bias=True)
            )
            (sa_layer_norm): LayerNorm((768,), eps=1e-12, elementwise_affine=True)
            (ffn): FFN(
              (dropout): Dropout(p=0.1, inplace=False)
              (lin1): Linear(in_features=768, out_features=3072, bias=True)
              (lin2): Linear(in_features=3072, out_features=768, bias=True)
              (activation): GELUActivation()
            )
            (output_layer_norm): LayerNorm((768,), eps=1e-12, elementwise_affine=True)
          )
        )
      )
    )
    (linear): Linear(in_features=768, out_features=768, bias=True)
    (dropout): Dropout(p=0.3, inplace=False)
    (clf): Linear(in_features=768, out_features=384, bias=True)
  )
  (content_preference_model): ContentPreferencesModel(
    (pretrained_model): DistilBertModel(
      (embeddings): Embeddings(
        (word_embeddings): Embedding(30522, 768, padding_idx=0)
        (position_embeddings): Embedding(512, 768)
        (LayerNorm): LayerNorm((768,), eps=1e-12, elementwise_affine=True)
        (dropout): Dropout(p=0.1, inplace=False)
      )
      (transformer): Transformer(
        (layer): ModuleList(
          (0-5): 6 x TransformerBlock(
            (attention): MultiHeadSelfAttention(
              (dropout): Dropout(p=0.1, inplace=False)
              (q_lin): Linear(in_features=768, out_features=768, bias=True)
              (k_lin): Linear(in_features=768, out_features=768, bias=True)
              (v_lin): Linear(in_features=768, out_features=768, bias=True)
              (out_lin): Linear(in_features=768, out_features=768, bias=True)
            )
            (sa_layer_norm): LayerNorm((768,), eps=1e-12, elementwise_affine=True)
            (ffn): FFN(
              (dropout): Dropout(p=0.1, inplace=False)
              (lin1): Linear(in_features=768, out_features=3072, bias=True)
              (lin2): Linear(in_features=3072, out_features=768, bias=True)
              (activation): GELUActivation()
            )
            (output_layer_norm): LayerNorm((768,), eps=1e-12, elementwise_affine=True)
          )
        )
      )
    )
    (linear): Linear(in_features=768, out_features=768, bias=True)
    (dropout): Dropout(p=0.3, inplace=False)
    (clf): Linear(in_features=768, out_features=384, bias=True)
  )
  (layer_normalizer): LayerNorm((768,), eps=1e-05, elementwise_affine=True)
  (light_se): LightSqueezeExicitationModel(
    (softmax): Softmax(dim=1)
    (excitation_layer): Linear(in_features=768, out_features=768, bias=False)
  )
  (combiner): Linear(in_features=768, out_features=768, bias=True)
  (dropout): Dropout(p=0.3, inplace=False)
  (classifier): Linear(in_features=768, out_features=768, bias=True)
  (rating_predictor): Linear(in_features=768, out_features=5, bias=True)
  (softmax): Softmax(dim=1)
)
11-Nov-23 18:07:40:TwoTowerRankerRecommenderModel:{'opts': Namespace(datasetFolder='./datasets/ml-100k', modelName='beginner-swan', pretrainedHfModelName='distilbert-base-uncased', train_bs=16, val_bs=64, lr=0.0003, version='3640', n_rows=10000), 'runtime_args': ['--worker=3', '--device=auto']}
11-Nov-23 18:07:40:TwoTowerRankerRecommenderModel:{'train_size': 7500, 'val_size': 2500}
11-Nov-23 18:07:44:TwoTowerRankerRecommenderModel:model lightning TwoTowerRecommenderRankerLitModel(
  (user_preference_model): UserPreferencesModel(
    (pretrained_model): DistilBertModel(
      (embeddings): Embeddings(
        (word_embeddings): Embedding(30522, 768, padding_idx=0)
        (position_embeddings): Embedding(512, 768)
        (LayerNorm): LayerNorm((768,), eps=1e-12, elementwise_affine=True)
        (dropout): Dropout(p=0.1, inplace=False)
      )
      (transformer): Transformer(
        (layer): ModuleList(
          (0-5): 6 x TransformerBlock(
            (attention): MultiHeadSelfAttention(
              (dropout): Dropout(p=0.1, inplace=False)
              (q_lin): Linear(in_features=768, out_features=768, bias=True)
              (k_lin): Linear(in_features=768, out_features=768, bias=True)
              (v_lin): Linear(in_features=768, out_features=768, bias=True)
              (out_lin): Linear(in_features=768, out_features=768, bias=True)
            )
            (sa_layer_norm): LayerNorm((768,), eps=1e-12, elementwise_affine=True)
            (ffn): FFN(
              (dropout): Dropout(p=0.1, inplace=False)
              (lin1): Linear(in_features=768, out_features=3072, bias=True)
              (lin2): Linear(in_features=3072, out_features=768, bias=True)
              (activation): GELUActivation()
            )
            (output_layer_norm): LayerNorm((768,), eps=1e-12, elementwise_affine=True)
          )
        )
      )
    )
    (linear): Linear(in_features=768, out_features=768, bias=True)
    (dropout): Dropout(p=0.3, inplace=False)
    (clf): Linear(in_features=768, out_features=384, bias=True)
  )
  (content_preference_model): ContentPreferencesModel(
    (pretrained_model): DistilBertModel(
      (embeddings): Embeddings(
        (word_embeddings): Embedding(30522, 768, padding_idx=0)
        (position_embeddings): Embedding(512, 768)
        (LayerNorm): LayerNorm((768,), eps=1e-12, elementwise_affine=True)
        (dropout): Dropout(p=0.1, inplace=False)
      )
      (transformer): Transformer(
        (layer): ModuleList(
          (0-5): 6 x TransformerBlock(
            (attention): MultiHeadSelfAttention(
              (dropout): Dropout(p=0.1, inplace=False)
              (q_lin): Linear(in_features=768, out_features=768, bias=True)
              (k_lin): Linear(in_features=768, out_features=768, bias=True)
              (v_lin): Linear(in_features=768, out_features=768, bias=True)
              (out_lin): Linear(in_features=768, out_features=768, bias=True)
            )
            (sa_layer_norm): LayerNorm((768,), eps=1e-12, elementwise_affine=True)
            (ffn): FFN(
              (dropout): Dropout(p=0.1, inplace=False)
              (lin1): Linear(in_features=768, out_features=3072, bias=True)
              (lin2): Linear(in_features=3072, out_features=768, bias=True)
              (activation): GELUActivation()
            )
            (output_layer_norm): LayerNorm((768,), eps=1e-12, elementwise_affine=True)
          )
        )
      )
    )
    (linear): Linear(in_features=768, out_features=768, bias=True)
    (dropout): Dropout(p=0.3, inplace=False)
    (clf): Linear(in_features=768, out_features=384, bias=True)
  )
  (layer_normalizer): LayerNorm((768,), eps=1e-05, elementwise_affine=True)
  (light_se): LightSqueezeExicitationModel(
    (softmax): Softmax(dim=1)
    (excitation_layer): Linear(in_features=768, out_features=768, bias=False)
  )
  (combiner): Linear(in_features=768, out_features=768, bias=True)
  (dropout): Dropout(p=0.3, inplace=False)
  (classifier): Linear(in_features=768, out_features=768, bias=True)
  (rating_predictor): Linear(in_features=768, out_features=5, bias=True)
  (softmax): Softmax(dim=1)
)
11-Nov-23 18:08:02:TwoTowerRankerRecommenderModel:{'opts': Namespace(datasetFolder='./datasets/ml-100k', modelName='beginner-swan', pretrainedHfModelName='distilbert-base-uncased', train_bs=16, val_bs=64, lr=0.0003, version='3510', n_rows=10000), 'runtime_args': ['--worker=3', '--device=auto']}
11-Nov-23 18:08:04:TwoTowerRankerRecommenderModel:{'train_size': 7500, 'val_size': 2500}
11-Nov-23 18:08:07:TwoTowerRankerRecommenderModel:model lightning TwoTowerRecommenderRankerLitModel(
  (user_preference_model): UserPreferencesModel(
    (pretrained_model): DistilBertModel(
      (embeddings): Embeddings(
        (word_embeddings): Embedding(30522, 768, padding_idx=0)
        (position_embeddings): Embedding(512, 768)
        (LayerNorm): LayerNorm((768,), eps=1e-12, elementwise_affine=True)
        (dropout): Dropout(p=0.1, inplace=False)
      )
      (transformer): Transformer(
        (layer): ModuleList(
          (0-5): 6 x TransformerBlock(
            (attention): MultiHeadSelfAttention(
              (dropout): Dropout(p=0.1, inplace=False)
              (q_lin): Linear(in_features=768, out_features=768, bias=True)
              (k_lin): Linear(in_features=768, out_features=768, bias=True)
              (v_lin): Linear(in_features=768, out_features=768, bias=True)
              (out_lin): Linear(in_features=768, out_features=768, bias=True)
            )
            (sa_layer_norm): LayerNorm((768,), eps=1e-12, elementwise_affine=True)
            (ffn): FFN(
              (dropout): Dropout(p=0.1, inplace=False)
              (lin1): Linear(in_features=768, out_features=3072, bias=True)
              (lin2): Linear(in_features=3072, out_features=768, bias=True)
              (activation): GELUActivation()
            )
            (output_layer_norm): LayerNorm((768,), eps=1e-12, elementwise_affine=True)
          )
        )
      )
    )
    (linear): Linear(in_features=768, out_features=768, bias=True)
    (dropout): Dropout(p=0.3, inplace=False)
    (clf): Linear(in_features=768, out_features=384, bias=True)
  )
  (content_preference_model): ContentPreferencesModel(
    (pretrained_model): DistilBertModel(
      (embeddings): Embeddings(
        (word_embeddings): Embedding(30522, 768, padding_idx=0)
        (position_embeddings): Embedding(512, 768)
        (LayerNorm): LayerNorm((768,), eps=1e-12, elementwise_affine=True)
        (dropout): Dropout(p=0.1, inplace=False)
      )
      (transformer): Transformer(
        (layer): ModuleList(
          (0-5): 6 x TransformerBlock(
            (attention): MultiHeadSelfAttention(
              (dropout): Dropout(p=0.1, inplace=False)
              (q_lin): Linear(in_features=768, out_features=768, bias=True)
              (k_lin): Linear(in_features=768, out_features=768, bias=True)
              (v_lin): Linear(in_features=768, out_features=768, bias=True)
              (out_lin): Linear(in_features=768, out_features=768, bias=True)
            )
            (sa_layer_norm): LayerNorm((768,), eps=1e-12, elementwise_affine=True)
            (ffn): FFN(
              (dropout): Dropout(p=0.1, inplace=False)
              (lin1): Linear(in_features=768, out_features=3072, bias=True)
              (lin2): Linear(in_features=3072, out_features=768, bias=True)
              (activation): GELUActivation()
            )
            (output_layer_norm): LayerNorm((768,), eps=1e-12, elementwise_affine=True)
          )
        )
      )
    )
    (linear): Linear(in_features=768, out_features=768, bias=True)
    (dropout): Dropout(p=0.3, inplace=False)
    (clf): Linear(in_features=768, out_features=384, bias=True)
  )
  (layer_normalizer): LayerNorm((768,), eps=1e-05, elementwise_affine=True)
  (light_se): LightSqueezeExicitationModel(
    (softmax): Softmax(dim=1)
    (excitation_layer): Linear(in_features=768, out_features=768, bias=False)
  )
  (combiner): Linear(in_features=768, out_features=768, bias=True)
  (dropout): Dropout(p=0.3, inplace=False)
  (classifier): Linear(in_features=768, out_features=768, bias=True)
  (rating_predictor): Linear(in_features=768, out_features=5, bias=True)
  (softmax): Softmax(dim=1)
)
11-Nov-23 18:08:22:TwoTowerRankerRecommenderModel:{'opts': Namespace(datasetFolder='./datasets/ml-100k', modelName='beginner-swan', pretrainedHfModelName='distilbert-base-uncased', train_bs=16, val_bs=64, lr=0.0003, version='2798', n_rows=10000), 'runtime_args': ['--worker=3', '--device=auto']}
11-Nov-23 18:08:23:TwoTowerRankerRecommenderModel:{'train_size': 7500, 'val_size': 2500}
11-Nov-23 18:08:25:TwoTowerRankerRecommenderModel:model lightning TwoTowerRecommenderRankerLitModel(
  (user_preference_model): UserPreferencesModel(
    (pretrained_model): DistilBertModel(
      (embeddings): Embeddings(
        (word_embeddings): Embedding(30522, 768, padding_idx=0)
        (position_embeddings): Embedding(512, 768)
        (LayerNorm): LayerNorm((768,), eps=1e-12, elementwise_affine=True)
        (dropout): Dropout(p=0.1, inplace=False)
      )
      (transformer): Transformer(
        (layer): ModuleList(
          (0-5): 6 x TransformerBlock(
            (attention): MultiHeadSelfAttention(
              (dropout): Dropout(p=0.1, inplace=False)
              (q_lin): Linear(in_features=768, out_features=768, bias=True)
              (k_lin): Linear(in_features=768, out_features=768, bias=True)
              (v_lin): Linear(in_features=768, out_features=768, bias=True)
              (out_lin): Linear(in_features=768, out_features=768, bias=True)
            )
            (sa_layer_norm): LayerNorm((768,), eps=1e-12, elementwise_affine=True)
            (ffn): FFN(
              (dropout): Dropout(p=0.1, inplace=False)
              (lin1): Linear(in_features=768, out_features=3072, bias=True)
              (lin2): Linear(in_features=3072, out_features=768, bias=True)
              (activation): GELUActivation()
            )
            (output_layer_norm): LayerNorm((768,), eps=1e-12, elementwise_affine=True)
          )
        )
      )
    )
    (linear): Linear(in_features=768, out_features=768, bias=True)
    (dropout): Dropout(p=0.3, inplace=False)
    (clf): Linear(in_features=768, out_features=384, bias=True)
  )
  (content_preference_model): ContentPreferencesModel(
    (pretrained_model): DistilBertModel(
      (embeddings): Embeddings(
        (word_embeddings): Embedding(30522, 768, padding_idx=0)
        (position_embeddings): Embedding(512, 768)
        (LayerNorm): LayerNorm((768,), eps=1e-12, elementwise_affine=True)
        (dropout): Dropout(p=0.1, inplace=False)
      )
      (transformer): Transformer(
        (layer): ModuleList(
          (0-5): 6 x TransformerBlock(
            (attention): MultiHeadSelfAttention(
              (dropout): Dropout(p=0.1, inplace=False)
              (q_lin): Linear(in_features=768, out_features=768, bias=True)
              (k_lin): Linear(in_features=768, out_features=768, bias=True)
              (v_lin): Linear(in_features=768, out_features=768, bias=True)
              (out_lin): Linear(in_features=768, out_features=768, bias=True)
            )
            (sa_layer_norm): LayerNorm((768,), eps=1e-12, elementwise_affine=True)
            (ffn): FFN(
              (dropout): Dropout(p=0.1, inplace=False)
              (lin1): Linear(in_features=768, out_features=3072, bias=True)
              (lin2): Linear(in_features=3072, out_features=768, bias=True)
              (activation): GELUActivation()
            )
            (output_layer_norm): LayerNorm((768,), eps=1e-12, elementwise_affine=True)
          )
        )
      )
    )
    (linear): Linear(in_features=768, out_features=768, bias=True)
    (dropout): Dropout(p=0.3, inplace=False)
    (clf): Linear(in_features=768, out_features=384, bias=True)
  )
  (layer_normalizer): LayerNorm((768,), eps=1e-05, elementwise_affine=True)
  (light_se): LightSqueezeExicitationModel(
    (softmax): Softmax(dim=1)
    (excitation_layer): Linear(in_features=768, out_features=768, bias=False)
  )
  (combiner): Linear(in_features=768, out_features=768, bias=True)
  (dropout): Dropout(p=0.3, inplace=False)
  (classifier): Linear(in_features=768, out_features=768, bias=True)
  (rating_predictor): Linear(in_features=768, out_features=5, bias=True)
  (softmax): Softmax(dim=1)
)
11-Nov-23 18:08:31:TwoTowerRankerRecommenderModel:{'opts': Namespace(datasetFolder='./datasets/ml-100k', modelName='beginner-swan', pretrainedHfModelName='distilbert-base-uncased', train_bs=16, val_bs=64, lr=0.0003, version='6381', n_rows=10000), 'runtime_args': ['--worker=3', '--device=auto']}
11-Nov-23 18:08:32:TwoTowerRankerRecommenderModel:{'train_size': 7500, 'val_size': 2500}
11-Nov-23 18:08:36:TwoTowerRankerRecommenderModel:model lightning TwoTowerRecommenderRankerLitModel(
  (user_preference_model): UserPreferencesModel(
    (pretrained_model): DistilBertModel(
      (embeddings): Embeddings(
        (word_embeddings): Embedding(30522, 768, padding_idx=0)
        (position_embeddings): Embedding(512, 768)
        (LayerNorm): LayerNorm((768,), eps=1e-12, elementwise_affine=True)
        (dropout): Dropout(p=0.1, inplace=False)
      )
      (transformer): Transformer(
        (layer): ModuleList(
          (0-5): 6 x TransformerBlock(
            (attention): MultiHeadSelfAttention(
              (dropout): Dropout(p=0.1, inplace=False)
              (q_lin): Linear(in_features=768, out_features=768, bias=True)
              (k_lin): Linear(in_features=768, out_features=768, bias=True)
              (v_lin): Linear(in_features=768, out_features=768, bias=True)
              (out_lin): Linear(in_features=768, out_features=768, bias=True)
            )
            (sa_layer_norm): LayerNorm((768,), eps=1e-12, elementwise_affine=True)
            (ffn): FFN(
              (dropout): Dropout(p=0.1, inplace=False)
              (lin1): Linear(in_features=768, out_features=3072, bias=True)
              (lin2): Linear(in_features=3072, out_features=768, bias=True)
              (activation): GELUActivation()
            )
            (output_layer_norm): LayerNorm((768,), eps=1e-12, elementwise_affine=True)
          )
        )
      )
    )
    (linear): Linear(in_features=768, out_features=768, bias=True)
    (dropout): Dropout(p=0.3, inplace=False)
    (clf): Linear(in_features=768, out_features=384, bias=True)
  )
  (content_preference_model): ContentPreferencesModel(
    (pretrained_model): DistilBertModel(
      (embeddings): Embeddings(
        (word_embeddings): Embedding(30522, 768, padding_idx=0)
        (position_embeddings): Embedding(512, 768)
        (LayerNorm): LayerNorm((768,), eps=1e-12, elementwise_affine=True)
        (dropout): Dropout(p=0.1, inplace=False)
      )
      (transformer): Transformer(
        (layer): ModuleList(
          (0-5): 6 x TransformerBlock(
            (attention): MultiHeadSelfAttention(
              (dropout): Dropout(p=0.1, inplace=False)
              (q_lin): Linear(in_features=768, out_features=768, bias=True)
              (k_lin): Linear(in_features=768, out_features=768, bias=True)
              (v_lin): Linear(in_features=768, out_features=768, bias=True)
              (out_lin): Linear(in_features=768, out_features=768, bias=True)
            )
            (sa_layer_norm): LayerNorm((768,), eps=1e-12, elementwise_affine=True)
            (ffn): FFN(
              (dropout): Dropout(p=0.1, inplace=False)
              (lin1): Linear(in_features=768, out_features=3072, bias=True)
              (lin2): Linear(in_features=3072, out_features=768, bias=True)
              (activation): GELUActivation()
            )
            (output_layer_norm): LayerNorm((768,), eps=1e-12, elementwise_affine=True)
          )
        )
      )
    )
    (linear): Linear(in_features=768, out_features=768, bias=True)
    (dropout): Dropout(p=0.3, inplace=False)
    (clf): Linear(in_features=768, out_features=384, bias=True)
  )
  (layer_normalizer): LayerNorm((768,), eps=1e-05, elementwise_affine=True)
  (light_se): LightSqueezeExicitationModel(
    (softmax): Softmax(dim=1)
    (excitation_layer): Linear(in_features=768, out_features=768, bias=False)
  )
  (combiner): Linear(in_features=768, out_features=768, bias=True)
  (dropout): Dropout(p=0.3, inplace=False)
  (classifier): Linear(in_features=768, out_features=768, bias=True)
  (rating_predictor): Linear(in_features=768, out_features=5, bias=True)
  (softmax): Softmax(dim=1)
)
11-Nov-23 18:08:52:TwoTowerRankerRecommenderModel:{'opts': Namespace(datasetFolder='./datasets/ml-100k', modelName='beginner-swan', pretrainedHfModelName='distilbert-base-uncased', train_bs=16, val_bs=64, lr=0.0003, version='9781', n_rows=10000), 'runtime_args': ['--worker=3', '--device=auto']}
11-Nov-23 18:08:53:TwoTowerRankerRecommenderModel:{'train_size': 7500, 'val_size': 2500}
11-Nov-23 18:08:56:TwoTowerRankerRecommenderModel:model lightning TwoTowerRecommenderRankerLitModel(
  (user_preference_model): UserPreferencesModel(
    (pretrained_model): DistilBertModel(
      (embeddings): Embeddings(
        (word_embeddings): Embedding(30522, 768, padding_idx=0)
        (position_embeddings): Embedding(512, 768)
        (LayerNorm): LayerNorm((768,), eps=1e-12, elementwise_affine=True)
        (dropout): Dropout(p=0.1, inplace=False)
      )
      (transformer): Transformer(
        (layer): ModuleList(
          (0-5): 6 x TransformerBlock(
            (attention): MultiHeadSelfAttention(
              (dropout): Dropout(p=0.1, inplace=False)
              (q_lin): Linear(in_features=768, out_features=768, bias=True)
              (k_lin): Linear(in_features=768, out_features=768, bias=True)
              (v_lin): Linear(in_features=768, out_features=768, bias=True)
              (out_lin): Linear(in_features=768, out_features=768, bias=True)
            )
            (sa_layer_norm): LayerNorm((768,), eps=1e-12, elementwise_affine=True)
            (ffn): FFN(
              (dropout): Dropout(p=0.1, inplace=False)
              (lin1): Linear(in_features=768, out_features=3072, bias=True)
              (lin2): Linear(in_features=3072, out_features=768, bias=True)
              (activation): GELUActivation()
            )
            (output_layer_norm): LayerNorm((768,), eps=1e-12, elementwise_affine=True)
          )
        )
      )
    )
    (linear): Linear(in_features=768, out_features=768, bias=True)
    (dropout): Dropout(p=0.3, inplace=False)
    (clf): Linear(in_features=768, out_features=384, bias=True)
  )
  (content_preference_model): ContentPreferencesModel(
    (pretrained_model): DistilBertModel(
      (embeddings): Embeddings(
        (word_embeddings): Embedding(30522, 768, padding_idx=0)
        (position_embeddings): Embedding(512, 768)
        (LayerNorm): LayerNorm((768,), eps=1e-12, elementwise_affine=True)
        (dropout): Dropout(p=0.1, inplace=False)
      )
      (transformer): Transformer(
        (layer): ModuleList(
          (0-5): 6 x TransformerBlock(
            (attention): MultiHeadSelfAttention(
              (dropout): Dropout(p=0.1, inplace=False)
              (q_lin): Linear(in_features=768, out_features=768, bias=True)
              (k_lin): Linear(in_features=768, out_features=768, bias=True)
              (v_lin): Linear(in_features=768, out_features=768, bias=True)
              (out_lin): Linear(in_features=768, out_features=768, bias=True)
            )
            (sa_layer_norm): LayerNorm((768,), eps=1e-12, elementwise_affine=True)
            (ffn): FFN(
              (dropout): Dropout(p=0.1, inplace=False)
              (lin1): Linear(in_features=768, out_features=3072, bias=True)
              (lin2): Linear(in_features=3072, out_features=768, bias=True)
              (activation): GELUActivation()
            )
            (output_layer_norm): LayerNorm((768,), eps=1e-12, elementwise_affine=True)
          )
        )
      )
    )
    (linear): Linear(in_features=768, out_features=768, bias=True)
    (dropout): Dropout(p=0.3, inplace=False)
    (clf): Linear(in_features=768, out_features=384, bias=True)
  )
  (layer_normalizer): LayerNorm((768,), eps=1e-05, elementwise_affine=True)
  (light_se): LightSqueezeExicitationModel(
    (softmax): Softmax(dim=1)
    (excitation_layer): Linear(in_features=768, out_features=768, bias=False)
  )
  (combiner): Linear(in_features=768, out_features=768, bias=True)
  (dropout): Dropout(p=0.3, inplace=False)
  (classifier): Linear(in_features=768, out_features=768, bias=True)
  (rating_predictor): Linear(in_features=768, out_features=5, bias=True)
  (softmax): Softmax(dim=1)
)
11-Nov-23 18:09:34:TwoTowerRankerRecommenderModel:{'opts': Namespace(datasetFolder='./datasets/ml-100k', modelName='beginner-swan', pretrainedHfModelName='distilbert-base-uncased', train_bs=16, val_bs=64, lr=0.0003, version='9927', n_rows=10000), 'runtime_args': ['--worker=3', '--device=auto']}
11-Nov-23 18:09:35:TwoTowerRankerRecommenderModel:{'train_size': 7500, 'val_size': 2500}
11-Nov-23 18:09:38:TwoTowerRankerRecommenderModel:model lightning TwoTowerRecommenderRankerLitModel(
  (user_preference_model): UserPreferencesModel(
    (pretrained_model): DistilBertModel(
      (embeddings): Embeddings(
        (word_embeddings): Embedding(30522, 768, padding_idx=0)
        (position_embeddings): Embedding(512, 768)
        (LayerNorm): LayerNorm((768,), eps=1e-12, elementwise_affine=True)
        (dropout): Dropout(p=0.1, inplace=False)
      )
      (transformer): Transformer(
        (layer): ModuleList(
          (0-5): 6 x TransformerBlock(
            (attention): MultiHeadSelfAttention(
              (dropout): Dropout(p=0.1, inplace=False)
              (q_lin): Linear(in_features=768, out_features=768, bias=True)
              (k_lin): Linear(in_features=768, out_features=768, bias=True)
              (v_lin): Linear(in_features=768, out_features=768, bias=True)
              (out_lin): Linear(in_features=768, out_features=768, bias=True)
            )
            (sa_layer_norm): LayerNorm((768,), eps=1e-12, elementwise_affine=True)
            (ffn): FFN(
              (dropout): Dropout(p=0.1, inplace=False)
              (lin1): Linear(in_features=768, out_features=3072, bias=True)
              (lin2): Linear(in_features=3072, out_features=768, bias=True)
              (activation): GELUActivation()
            )
            (output_layer_norm): LayerNorm((768,), eps=1e-12, elementwise_affine=True)
          )
        )
      )
    )
    (linear): Linear(in_features=768, out_features=768, bias=True)
    (dropout): Dropout(p=0.3, inplace=False)
    (clf): Linear(in_features=768, out_features=384, bias=True)
  )
  (content_preference_model): ContentPreferencesModel(
    (pretrained_model): DistilBertModel(
      (embeddings): Embeddings(
        (word_embeddings): Embedding(30522, 768, padding_idx=0)
        (position_embeddings): Embedding(512, 768)
        (LayerNorm): LayerNorm((768,), eps=1e-12, elementwise_affine=True)
        (dropout): Dropout(p=0.1, inplace=False)
      )
      (transformer): Transformer(
        (layer): ModuleList(
          (0-5): 6 x TransformerBlock(
            (attention): MultiHeadSelfAttention(
              (dropout): Dropout(p=0.1, inplace=False)
              (q_lin): Linear(in_features=768, out_features=768, bias=True)
              (k_lin): Linear(in_features=768, out_features=768, bias=True)
              (v_lin): Linear(in_features=768, out_features=768, bias=True)
              (out_lin): Linear(in_features=768, out_features=768, bias=True)
            )
            (sa_layer_norm): LayerNorm((768,), eps=1e-12, elementwise_affine=True)
            (ffn): FFN(
              (dropout): Dropout(p=0.1, inplace=False)
              (lin1): Linear(in_features=768, out_features=3072, bias=True)
              (lin2): Linear(in_features=3072, out_features=768, bias=True)
              (activation): GELUActivation()
            )
            (output_layer_norm): LayerNorm((768,), eps=1e-12, elementwise_affine=True)
          )
        )
      )
    )
    (linear): Linear(in_features=768, out_features=768, bias=True)
    (dropout): Dropout(p=0.3, inplace=False)
    (clf): Linear(in_features=768, out_features=384, bias=True)
  )
  (layer_normalizer): LayerNorm((768,), eps=1e-05, elementwise_affine=True)
  (light_se): LightSqueezeExicitationModel(
    (softmax): Softmax(dim=1)
    (excitation_layer): Linear(in_features=768, out_features=768, bias=False)
  )
  (combiner): Linear(in_features=768, out_features=768, bias=True)
  (dropout): Dropout(p=0.3, inplace=False)
  (classifier): Linear(in_features=768, out_features=768, bias=True)
  (rating_predictor): Linear(in_features=768, out_features=5, bias=True)
  (softmax): Softmax(dim=1)
)
11-Nov-23 18:10:16:TwoTowerRankerRecommenderModel:{'opts': Namespace(datasetFolder='./datasets/ml-100k', modelName='beginner-swan', pretrainedHfModelName='distilbert-base-uncased', train_bs=16, val_bs=64, lr=0.0003, version='3803', n_rows=10000), 'runtime_args': ['--worker=3', '--device=auto']}
11-Nov-23 18:10:16:TwoTowerRankerRecommenderModel:{'train_size': 7500, 'val_size': 2500}
11-Nov-23 18:10:19:TwoTowerRankerRecommenderModel:model lightning TwoTowerRecommenderRankerLitModel(
  (user_preference_model): UserPreferencesModel(
    (pretrained_model): DistilBertModel(
      (embeddings): Embeddings(
        (word_embeddings): Embedding(30522, 768, padding_idx=0)
        (position_embeddings): Embedding(512, 768)
        (LayerNorm): LayerNorm((768,), eps=1e-12, elementwise_affine=True)
        (dropout): Dropout(p=0.1, inplace=False)
      )
      (transformer): Transformer(
        (layer): ModuleList(
          (0-5): 6 x TransformerBlock(
            (attention): MultiHeadSelfAttention(
              (dropout): Dropout(p=0.1, inplace=False)
              (q_lin): Linear(in_features=768, out_features=768, bias=True)
              (k_lin): Linear(in_features=768, out_features=768, bias=True)
              (v_lin): Linear(in_features=768, out_features=768, bias=True)
              (out_lin): Linear(in_features=768, out_features=768, bias=True)
            )
            (sa_layer_norm): LayerNorm((768,), eps=1e-12, elementwise_affine=True)
            (ffn): FFN(
              (dropout): Dropout(p=0.1, inplace=False)
              (lin1): Linear(in_features=768, out_features=3072, bias=True)
              (lin2): Linear(in_features=3072, out_features=768, bias=True)
              (activation): GELUActivation()
            )
            (output_layer_norm): LayerNorm((768,), eps=1e-12, elementwise_affine=True)
          )
        )
      )
    )
    (linear): Linear(in_features=768, out_features=768, bias=True)
    (dropout): Dropout(p=0.3, inplace=False)
    (clf): Linear(in_features=768, out_features=384, bias=True)
  )
  (content_preference_model): ContentPreferencesModel(
    (pretrained_model): DistilBertModel(
      (embeddings): Embeddings(
        (word_embeddings): Embedding(30522, 768, padding_idx=0)
        (position_embeddings): Embedding(512, 768)
        (LayerNorm): LayerNorm((768,), eps=1e-12, elementwise_affine=True)
        (dropout): Dropout(p=0.1, inplace=False)
      )
      (transformer): Transformer(
        (layer): ModuleList(
          (0-5): 6 x TransformerBlock(
            (attention): MultiHeadSelfAttention(
              (dropout): Dropout(p=0.1, inplace=False)
              (q_lin): Linear(in_features=768, out_features=768, bias=True)
              (k_lin): Linear(in_features=768, out_features=768, bias=True)
              (v_lin): Linear(in_features=768, out_features=768, bias=True)
              (out_lin): Linear(in_features=768, out_features=768, bias=True)
            )
            (sa_layer_norm): LayerNorm((768,), eps=1e-12, elementwise_affine=True)
            (ffn): FFN(
              (dropout): Dropout(p=0.1, inplace=False)
              (lin1): Linear(in_features=768, out_features=3072, bias=True)
              (lin2): Linear(in_features=3072, out_features=768, bias=True)
              (activation): GELUActivation()
            )
            (output_layer_norm): LayerNorm((768,), eps=1e-12, elementwise_affine=True)
          )
        )
      )
    )
    (linear): Linear(in_features=768, out_features=768, bias=True)
    (dropout): Dropout(p=0.3, inplace=False)
    (clf): Linear(in_features=768, out_features=384, bias=True)
  )
  (layer_normalizer): LayerNorm((768,), eps=1e-05, elementwise_affine=True)
  (light_se): LightSqueezeExicitationModel(
    (softmax): Softmax(dim=1)
    (excitation_layer): Linear(in_features=768, out_features=768, bias=False)
  )
  (combiner): Linear(in_features=768, out_features=768, bias=True)
  (dropout): Dropout(p=0.3, inplace=False)
  (classifier): Linear(in_features=768, out_features=768, bias=True)
  (rating_predictor): Linear(in_features=768, out_features=5, bias=True)
  (softmax): Softmax(dim=1)
)
11-Nov-23 18:10:31:TwoTowerRankerRecommenderModel:{'opts': Namespace(datasetFolder='./datasets/ml-100k', modelName='beginner-swan', pretrainedHfModelName='distilbert-base-uncased', train_bs=16, val_bs=64, lr=0.0003, version='6223', n_rows=10000), 'runtime_args': ['--worker=3', '--device=auto']}
11-Nov-23 18:10:32:TwoTowerRankerRecommenderModel:{'train_size': 7500, 'val_size': 2500}
11-Nov-23 18:10:34:TwoTowerRankerRecommenderModel:model lightning TwoTowerRecommenderRankerLitModel(
  (user_preference_model): UserPreferencesModel(
    (pretrained_model): DistilBertModel(
      (embeddings): Embeddings(
        (word_embeddings): Embedding(30522, 768, padding_idx=0)
        (position_embeddings): Embedding(512, 768)
        (LayerNorm): LayerNorm((768,), eps=1e-12, elementwise_affine=True)
        (dropout): Dropout(p=0.1, inplace=False)
      )
      (transformer): Transformer(
        (layer): ModuleList(
          (0-5): 6 x TransformerBlock(
            (attention): MultiHeadSelfAttention(
              (dropout): Dropout(p=0.1, inplace=False)
              (q_lin): Linear(in_features=768, out_features=768, bias=True)
              (k_lin): Linear(in_features=768, out_features=768, bias=True)
              (v_lin): Linear(in_features=768, out_features=768, bias=True)
              (out_lin): Linear(in_features=768, out_features=768, bias=True)
            )
            (sa_layer_norm): LayerNorm((768,), eps=1e-12, elementwise_affine=True)
            (ffn): FFN(
              (dropout): Dropout(p=0.1, inplace=False)
              (lin1): Linear(in_features=768, out_features=3072, bias=True)
              (lin2): Linear(in_features=3072, out_features=768, bias=True)
              (activation): GELUActivation()
            )
            (output_layer_norm): LayerNorm((768,), eps=1e-12, elementwise_affine=True)
          )
        )
      )
    )
    (linear): Linear(in_features=768, out_features=768, bias=True)
    (dropout): Dropout(p=0.3, inplace=False)
    (clf): Linear(in_features=768, out_features=384, bias=True)
  )
  (content_preference_model): ContentPreferencesModel(
    (pretrained_model): DistilBertModel(
      (embeddings): Embeddings(
        (word_embeddings): Embedding(30522, 768, padding_idx=0)
        (position_embeddings): Embedding(512, 768)
        (LayerNorm): LayerNorm((768,), eps=1e-12, elementwise_affine=True)
        (dropout): Dropout(p=0.1, inplace=False)
      )
      (transformer): Transformer(
        (layer): ModuleList(
          (0-5): 6 x TransformerBlock(
            (attention): MultiHeadSelfAttention(
              (dropout): Dropout(p=0.1, inplace=False)
              (q_lin): Linear(in_features=768, out_features=768, bias=True)
              (k_lin): Linear(in_features=768, out_features=768, bias=True)
              (v_lin): Linear(in_features=768, out_features=768, bias=True)
              (out_lin): Linear(in_features=768, out_features=768, bias=True)
            )
            (sa_layer_norm): LayerNorm((768,), eps=1e-12, elementwise_affine=True)
            (ffn): FFN(
              (dropout): Dropout(p=0.1, inplace=False)
              (lin1): Linear(in_features=768, out_features=3072, bias=True)
              (lin2): Linear(in_features=3072, out_features=768, bias=True)
              (activation): GELUActivation()
            )
            (output_layer_norm): LayerNorm((768,), eps=1e-12, elementwise_affine=True)
          )
        )
      )
    )
    (linear): Linear(in_features=768, out_features=768, bias=True)
    (dropout): Dropout(p=0.3, inplace=False)
    (clf): Linear(in_features=768, out_features=384, bias=True)
  )
  (layer_normalizer): LayerNorm((768,), eps=1e-05, elementwise_affine=True)
  (light_se): LightSqueezeExicitationModel(
    (softmax): Softmax(dim=1)
    (excitation_layer): Linear(in_features=768, out_features=768, bias=False)
  )
  (combiner): Linear(in_features=768, out_features=768, bias=True)
  (dropout): Dropout(p=0.3, inplace=False)
  (classifier): Linear(in_features=768, out_features=768, bias=True)
  (rating_predictor): Linear(in_features=768, out_features=5, bias=True)
  (softmax): Softmax(dim=1)
)
11-Nov-23 18:12:21:TwoTowerRankerRecommenderModel:{'opts': Namespace(datasetFolder='./datasets/ml-100k', modelName='beginner-swan', pretrainedHfModelName='distilbert-base-uncased', train_bs=16, val_bs=64, lr=0.0003, version='8382', n_rows=10000), 'runtime_args': ['--worker=3', '--device=auto']}
11-Nov-23 18:12:21:TwoTowerRankerRecommenderModel:{'train_size': 7500, 'val_size': 2500}
11-Nov-23 18:12:25:TwoTowerRankerRecommenderModel:model lightning TwoTowerRecommenderRankerLitModel(
  (user_preference_model): UserPreferencesModel(
    (pretrained_model): DistilBertModel(
      (embeddings): Embeddings(
        (word_embeddings): Embedding(30522, 768, padding_idx=0)
        (position_embeddings): Embedding(512, 768)
        (LayerNorm): LayerNorm((768,), eps=1e-12, elementwise_affine=True)
        (dropout): Dropout(p=0.1, inplace=False)
      )
      (transformer): Transformer(
        (layer): ModuleList(
          (0-5): 6 x TransformerBlock(
            (attention): MultiHeadSelfAttention(
              (dropout): Dropout(p=0.1, inplace=False)
              (q_lin): Linear(in_features=768, out_features=768, bias=True)
              (k_lin): Linear(in_features=768, out_features=768, bias=True)
              (v_lin): Linear(in_features=768, out_features=768, bias=True)
              (out_lin): Linear(in_features=768, out_features=768, bias=True)
            )
            (sa_layer_norm): LayerNorm((768,), eps=1e-12, elementwise_affine=True)
            (ffn): FFN(
              (dropout): Dropout(p=0.1, inplace=False)
              (lin1): Linear(in_features=768, out_features=3072, bias=True)
              (lin2): Linear(in_features=3072, out_features=768, bias=True)
              (activation): GELUActivation()
            )
            (output_layer_norm): LayerNorm((768,), eps=1e-12, elementwise_affine=True)
          )
        )
      )
    )
    (linear): Linear(in_features=768, out_features=768, bias=True)
    (dropout): Dropout(p=0.3, inplace=False)
    (clf): Linear(in_features=768, out_features=384, bias=True)
  )
  (content_preference_model): ContentPreferencesModel(
    (pretrained_model): DistilBertModel(
      (embeddings): Embeddings(
        (word_embeddings): Embedding(30522, 768, padding_idx=0)
        (position_embeddings): Embedding(512, 768)
        (LayerNorm): LayerNorm((768,), eps=1e-12, elementwise_affine=True)
        (dropout): Dropout(p=0.1, inplace=False)
      )
      (transformer): Transformer(
        (layer): ModuleList(
          (0-5): 6 x TransformerBlock(
            (attention): MultiHeadSelfAttention(
              (dropout): Dropout(p=0.1, inplace=False)
              (q_lin): Linear(in_features=768, out_features=768, bias=True)
              (k_lin): Linear(in_features=768, out_features=768, bias=True)
              (v_lin): Linear(in_features=768, out_features=768, bias=True)
              (out_lin): Linear(in_features=768, out_features=768, bias=True)
            )
            (sa_layer_norm): LayerNorm((768,), eps=1e-12, elementwise_affine=True)
            (ffn): FFN(
              (dropout): Dropout(p=0.1, inplace=False)
              (lin1): Linear(in_features=768, out_features=3072, bias=True)
              (lin2): Linear(in_features=3072, out_features=768, bias=True)
              (activation): GELUActivation()
            )
            (output_layer_norm): LayerNorm((768,), eps=1e-12, elementwise_affine=True)
          )
        )
      )
    )
    (linear): Linear(in_features=768, out_features=768, bias=True)
    (dropout): Dropout(p=0.3, inplace=False)
    (clf): Linear(in_features=768, out_features=384, bias=True)
  )
  (layer_normalizer): LayerNorm((768,), eps=1e-05, elementwise_affine=True)
  (light_se): LightSqueezeExicitationModel(
    (softmax): Softmax(dim=1)
    (excitation_layer): Linear(in_features=768, out_features=768, bias=False)
  )
  (combiner): Linear(in_features=768, out_features=768, bias=True)
  (dropout): Dropout(p=0.3, inplace=False)
  (classifier): Linear(in_features=768, out_features=768, bias=True)
  (rating_predictor): Linear(in_features=768, out_features=5, bias=True)
  (softmax): Softmax(dim=1)
)
11-Nov-23 18:12:43:TwoTowerRankerRecommenderModel:{'opts': Namespace(datasetFolder='./datasets/ml-100k', modelName='beginner-swan', pretrainedHfModelName='distilbert-base-uncased', train_bs=16, val_bs=64, lr=0.0003, version='9602', n_rows=10000), 'runtime_args': ['--worker=3', '--device=auto']}
11-Nov-23 18:12:44:TwoTowerRankerRecommenderModel:{'train_size': 7500, 'val_size': 2500}
11-Nov-23 18:12:46:TwoTowerRankerRecommenderModel:model lightning TwoTowerRecommenderRankerLitModel(
  (user_preference_model): UserPreferencesModel(
    (pretrained_model): DistilBertModel(
      (embeddings): Embeddings(
        (word_embeddings): Embedding(30522, 768, padding_idx=0)
        (position_embeddings): Embedding(512, 768)
        (LayerNorm): LayerNorm((768,), eps=1e-12, elementwise_affine=True)
        (dropout): Dropout(p=0.1, inplace=False)
      )
      (transformer): Transformer(
        (layer): ModuleList(
          (0-5): 6 x TransformerBlock(
            (attention): MultiHeadSelfAttention(
              (dropout): Dropout(p=0.1, inplace=False)
              (q_lin): Linear(in_features=768, out_features=768, bias=True)
              (k_lin): Linear(in_features=768, out_features=768, bias=True)
              (v_lin): Linear(in_features=768, out_features=768, bias=True)
              (out_lin): Linear(in_features=768, out_features=768, bias=True)
            )
            (sa_layer_norm): LayerNorm((768,), eps=1e-12, elementwise_affine=True)
            (ffn): FFN(
              (dropout): Dropout(p=0.1, inplace=False)
              (lin1): Linear(in_features=768, out_features=3072, bias=True)
              (lin2): Linear(in_features=3072, out_features=768, bias=True)
              (activation): GELUActivation()
            )
            (output_layer_norm): LayerNorm((768,), eps=1e-12, elementwise_affine=True)
          )
        )
      )
    )
    (linear): Linear(in_features=768, out_features=768, bias=True)
    (dropout): Dropout(p=0.3, inplace=False)
    (clf): Linear(in_features=768, out_features=384, bias=True)
  )
  (content_preference_model): ContentPreferencesModel(
    (pretrained_model): DistilBertModel(
      (embeddings): Embeddings(
        (word_embeddings): Embedding(30522, 768, padding_idx=0)
        (position_embeddings): Embedding(512, 768)
        (LayerNorm): LayerNorm((768,), eps=1e-12, elementwise_affine=True)
        (dropout): Dropout(p=0.1, inplace=False)
      )
      (transformer): Transformer(
        (layer): ModuleList(
          (0-5): 6 x TransformerBlock(
            (attention): MultiHeadSelfAttention(
              (dropout): Dropout(p=0.1, inplace=False)
              (q_lin): Linear(in_features=768, out_features=768, bias=True)
              (k_lin): Linear(in_features=768, out_features=768, bias=True)
              (v_lin): Linear(in_features=768, out_features=768, bias=True)
              (out_lin): Linear(in_features=768, out_features=768, bias=True)
            )
            (sa_layer_norm): LayerNorm((768,), eps=1e-12, elementwise_affine=True)
            (ffn): FFN(
              (dropout): Dropout(p=0.1, inplace=False)
              (lin1): Linear(in_features=768, out_features=3072, bias=True)
              (lin2): Linear(in_features=3072, out_features=768, bias=True)
              (activation): GELUActivation()
            )
            (output_layer_norm): LayerNorm((768,), eps=1e-12, elementwise_affine=True)
          )
        )
      )
    )
    (linear): Linear(in_features=768, out_features=768, bias=True)
    (dropout): Dropout(p=0.3, inplace=False)
    (clf): Linear(in_features=768, out_features=384, bias=True)
  )
  (layer_normalizer): LayerNorm((768,), eps=1e-05, elementwise_affine=True)
  (light_se): LightSqueezeExicitationModel(
    (softmax): Softmax(dim=1)
    (excitation_layer): Linear(in_features=768, out_features=768, bias=False)
  )
  (combiner): Linear(in_features=768, out_features=768, bias=True)
  (dropout): Dropout(p=0.3, inplace=False)
  (classifier): Linear(in_features=768, out_features=768, bias=True)
  (rating_predictor): Linear(in_features=768, out_features=5, bias=True)
  (softmax): Softmax(dim=1)
)
11-Nov-23 18:13:05:TwoTowerRankerRecommenderModel:{'opts': Namespace(datasetFolder='./datasets/ml-100k', modelName='beginner-swan', pretrainedHfModelName='distilbert-base-uncased', train_bs=16, val_bs=64, lr=0.0003, version='6739', n_rows=10000), 'runtime_args': ['--worker=3', '--device=auto']}
11-Nov-23 18:13:06:TwoTowerRankerRecommenderModel:{'train_size': 7500, 'val_size': 2500}
11-Nov-23 18:13:08:TwoTowerRankerRecommenderModel:model lightning TwoTowerRecommenderRankerLitModel(
  (user_preference_model): UserPreferencesModel(
    (pretrained_model): DistilBertModel(
      (embeddings): Embeddings(
        (word_embeddings): Embedding(30522, 768, padding_idx=0)
        (position_embeddings): Embedding(512, 768)
        (LayerNorm): LayerNorm((768,), eps=1e-12, elementwise_affine=True)
        (dropout): Dropout(p=0.1, inplace=False)
      )
      (transformer): Transformer(
        (layer): ModuleList(
          (0-5): 6 x TransformerBlock(
            (attention): MultiHeadSelfAttention(
              (dropout): Dropout(p=0.1, inplace=False)
              (q_lin): Linear(in_features=768, out_features=768, bias=True)
              (k_lin): Linear(in_features=768, out_features=768, bias=True)
              (v_lin): Linear(in_features=768, out_features=768, bias=True)
              (out_lin): Linear(in_features=768, out_features=768, bias=True)
            )
            (sa_layer_norm): LayerNorm((768,), eps=1e-12, elementwise_affine=True)
            (ffn): FFN(
              (dropout): Dropout(p=0.1, inplace=False)
              (lin1): Linear(in_features=768, out_features=3072, bias=True)
              (lin2): Linear(in_features=3072, out_features=768, bias=True)
              (activation): GELUActivation()
            )
            (output_layer_norm): LayerNorm((768,), eps=1e-12, elementwise_affine=True)
          )
        )
      )
    )
    (linear): Linear(in_features=768, out_features=768, bias=True)
    (dropout): Dropout(p=0.3, inplace=False)
    (clf): Linear(in_features=768, out_features=384, bias=True)
  )
  (content_preference_model): ContentPreferencesModel(
    (pretrained_model): DistilBertModel(
      (embeddings): Embeddings(
        (word_embeddings): Embedding(30522, 768, padding_idx=0)
        (position_embeddings): Embedding(512, 768)
        (LayerNorm): LayerNorm((768,), eps=1e-12, elementwise_affine=True)
        (dropout): Dropout(p=0.1, inplace=False)
      )
      (transformer): Transformer(
        (layer): ModuleList(
          (0-5): 6 x TransformerBlock(
            (attention): MultiHeadSelfAttention(
              (dropout): Dropout(p=0.1, inplace=False)
              (q_lin): Linear(in_features=768, out_features=768, bias=True)
              (k_lin): Linear(in_features=768, out_features=768, bias=True)
              (v_lin): Linear(in_features=768, out_features=768, bias=True)
              (out_lin): Linear(in_features=768, out_features=768, bias=True)
            )
            (sa_layer_norm): LayerNorm((768,), eps=1e-12, elementwise_affine=True)
            (ffn): FFN(
              (dropout): Dropout(p=0.1, inplace=False)
              (lin1): Linear(in_features=768, out_features=3072, bias=True)
              (lin2): Linear(in_features=3072, out_features=768, bias=True)
              (activation): GELUActivation()
            )
            (output_layer_norm): LayerNorm((768,), eps=1e-12, elementwise_affine=True)
          )
        )
      )
    )
    (linear): Linear(in_features=768, out_features=768, bias=True)
    (dropout): Dropout(p=0.3, inplace=False)
    (clf): Linear(in_features=768, out_features=384, bias=True)
  )
  (layer_normalizer): LayerNorm((768,), eps=1e-05, elementwise_affine=True)
  (light_se): LightSqueezeExicitationModel(
    (softmax): Softmax(dim=1)
    (excitation_layer): Linear(in_features=768, out_features=768, bias=False)
  )
  (combiner): Linear(in_features=768, out_features=768, bias=True)
  (dropout): Dropout(p=0.3, inplace=False)
  (classifier): Linear(in_features=768, out_features=768, bias=True)
  (rating_predictor): Linear(in_features=768, out_features=5, bias=True)
  (softmax): Softmax(dim=1)
)
11-Nov-23 18:13:35:TwoTowerRankerRecommenderModel:{'opts': Namespace(datasetFolder='./datasets/ml-100k', modelName='beginner-swan', pretrainedHfModelName='distilbert-base-uncased', train_bs=16, val_bs=64, lr=0.0003, version='3056', n_rows=10000), 'runtime_args': ['--worker=3', '--device=auto']}
11-Nov-23 18:13:35:TwoTowerRankerRecommenderModel:{'train_size': 7500, 'val_size': 2500}
11-Nov-23 18:13:39:TwoTowerRankerRecommenderModel:model lightning TwoTowerRecommenderRankerLitModel(
  (user_preference_model): UserPreferencesModel(
    (pretrained_model): DistilBertModel(
      (embeddings): Embeddings(
        (word_embeddings): Embedding(30522, 768, padding_idx=0)
        (position_embeddings): Embedding(512, 768)
        (LayerNorm): LayerNorm((768,), eps=1e-12, elementwise_affine=True)
        (dropout): Dropout(p=0.1, inplace=False)
      )
      (transformer): Transformer(
        (layer): ModuleList(
          (0-5): 6 x TransformerBlock(
            (attention): MultiHeadSelfAttention(
              (dropout): Dropout(p=0.1, inplace=False)
              (q_lin): Linear(in_features=768, out_features=768, bias=True)
              (k_lin): Linear(in_features=768, out_features=768, bias=True)
              (v_lin): Linear(in_features=768, out_features=768, bias=True)
              (out_lin): Linear(in_features=768, out_features=768, bias=True)
            )
            (sa_layer_norm): LayerNorm((768,), eps=1e-12, elementwise_affine=True)
            (ffn): FFN(
              (dropout): Dropout(p=0.1, inplace=False)
              (lin1): Linear(in_features=768, out_features=3072, bias=True)
              (lin2): Linear(in_features=3072, out_features=768, bias=True)
              (activation): GELUActivation()
            )
            (output_layer_norm): LayerNorm((768,), eps=1e-12, elementwise_affine=True)
          )
        )
      )
    )
    (linear): Linear(in_features=768, out_features=768, bias=True)
    (dropout): Dropout(p=0.3, inplace=False)
    (clf): Linear(in_features=768, out_features=384, bias=True)
  )
  (content_preference_model): ContentPreferencesModel(
    (pretrained_model): DistilBertModel(
      (embeddings): Embeddings(
        (word_embeddings): Embedding(30522, 768, padding_idx=0)
        (position_embeddings): Embedding(512, 768)
        (LayerNorm): LayerNorm((768,), eps=1e-12, elementwise_affine=True)
        (dropout): Dropout(p=0.1, inplace=False)
      )
      (transformer): Transformer(
        (layer): ModuleList(
          (0-5): 6 x TransformerBlock(
            (attention): MultiHeadSelfAttention(
              (dropout): Dropout(p=0.1, inplace=False)
              (q_lin): Linear(in_features=768, out_features=768, bias=True)
              (k_lin): Linear(in_features=768, out_features=768, bias=True)
              (v_lin): Linear(in_features=768, out_features=768, bias=True)
              (out_lin): Linear(in_features=768, out_features=768, bias=True)
            )
            (sa_layer_norm): LayerNorm((768,), eps=1e-12, elementwise_affine=True)
            (ffn): FFN(
              (dropout): Dropout(p=0.1, inplace=False)
              (lin1): Linear(in_features=768, out_features=3072, bias=True)
              (lin2): Linear(in_features=3072, out_features=768, bias=True)
              (activation): GELUActivation()
            )
            (output_layer_norm): LayerNorm((768,), eps=1e-12, elementwise_affine=True)
          )
        )
      )
    )
    (linear): Linear(in_features=768, out_features=768, bias=True)
    (dropout): Dropout(p=0.3, inplace=False)
    (clf): Linear(in_features=768, out_features=384, bias=True)
  )
  (layer_normalizer): LayerNorm((768,), eps=1e-05, elementwise_affine=True)
  (light_se): LightSqueezeExicitationModel(
    (softmax): Softmax(dim=1)
    (excitation_layer): Linear(in_features=768, out_features=768, bias=False)
  )
  (combiner): Linear(in_features=768, out_features=768, bias=True)
  (dropout): Dropout(p=0.3, inplace=False)
  (classifier): Linear(in_features=768, out_features=768, bias=True)
  (rating_predictor): Linear(in_features=768, out_features=5, bias=True)
  (softmax): Softmax(dim=1)
)
11-Nov-23 18:13:49:TwoTowerRankerRecommenderModel:{'opts': Namespace(datasetFolder='./datasets/ml-100k', modelName='beginner-swan', pretrainedHfModelName='distilbert-base-uncased', train_bs=16, val_bs=64, lr=0.0003, version='1581', n_rows=10000), 'runtime_args': ['--worker=3', '--device=auto']}
11-Nov-23 18:13:50:TwoTowerRankerRecommenderModel:{'train_size': 7500, 'val_size': 2500}
11-Nov-23 18:13:52:TwoTowerRankerRecommenderModel:model lightning TwoTowerRecommenderRankerLitModel(
  (user_preference_model): UserPreferencesModel(
    (pretrained_model): DistilBertModel(
      (embeddings): Embeddings(
        (word_embeddings): Embedding(30522, 768, padding_idx=0)
        (position_embeddings): Embedding(512, 768)
        (LayerNorm): LayerNorm((768,), eps=1e-12, elementwise_affine=True)
        (dropout): Dropout(p=0.1, inplace=False)
      )
      (transformer): Transformer(
        (layer): ModuleList(
          (0-5): 6 x TransformerBlock(
            (attention): MultiHeadSelfAttention(
              (dropout): Dropout(p=0.1, inplace=False)
              (q_lin): Linear(in_features=768, out_features=768, bias=True)
              (k_lin): Linear(in_features=768, out_features=768, bias=True)
              (v_lin): Linear(in_features=768, out_features=768, bias=True)
              (out_lin): Linear(in_features=768, out_features=768, bias=True)
            )
            (sa_layer_norm): LayerNorm((768,), eps=1e-12, elementwise_affine=True)
            (ffn): FFN(
              (dropout): Dropout(p=0.1, inplace=False)
              (lin1): Linear(in_features=768, out_features=3072, bias=True)
              (lin2): Linear(in_features=3072, out_features=768, bias=True)
              (activation): GELUActivation()
            )
            (output_layer_norm): LayerNorm((768,), eps=1e-12, elementwise_affine=True)
          )
        )
      )
    )
    (linear): Linear(in_features=768, out_features=768, bias=True)
    (dropout): Dropout(p=0.3, inplace=False)
    (clf): Linear(in_features=768, out_features=384, bias=True)
  )
  (content_preference_model): ContentPreferencesModel(
    (pretrained_model): DistilBertModel(
      (embeddings): Embeddings(
        (word_embeddings): Embedding(30522, 768, padding_idx=0)
        (position_embeddings): Embedding(512, 768)
        (LayerNorm): LayerNorm((768,), eps=1e-12, elementwise_affine=True)
        (dropout): Dropout(p=0.1, inplace=False)
      )
      (transformer): Transformer(
        (layer): ModuleList(
          (0-5): 6 x TransformerBlock(
            (attention): MultiHeadSelfAttention(
              (dropout): Dropout(p=0.1, inplace=False)
              (q_lin): Linear(in_features=768, out_features=768, bias=True)
              (k_lin): Linear(in_features=768, out_features=768, bias=True)
              (v_lin): Linear(in_features=768, out_features=768, bias=True)
              (out_lin): Linear(in_features=768, out_features=768, bias=True)
            )
            (sa_layer_norm): LayerNorm((768,), eps=1e-12, elementwise_affine=True)
            (ffn): FFN(
              (dropout): Dropout(p=0.1, inplace=False)
              (lin1): Linear(in_features=768, out_features=3072, bias=True)
              (lin2): Linear(in_features=3072, out_features=768, bias=True)
              (activation): GELUActivation()
            )
            (output_layer_norm): LayerNorm((768,), eps=1e-12, elementwise_affine=True)
          )
        )
      )
    )
    (linear): Linear(in_features=768, out_features=768, bias=True)
    (dropout): Dropout(p=0.3, inplace=False)
    (clf): Linear(in_features=768, out_features=384, bias=True)
  )
  (layer_normalizer): LayerNorm((768,), eps=1e-05, elementwise_affine=True)
  (light_se): LightSqueezeExicitationModel(
    (softmax): Softmax(dim=1)
    (excitation_layer): Linear(in_features=768, out_features=768, bias=False)
  )
  (combiner): Linear(in_features=768, out_features=768, bias=True)
  (dropout): Dropout(p=0.3, inplace=False)
  (classifier): Linear(in_features=768, out_features=768, bias=True)
  (rating_predictor): Linear(in_features=768, out_features=5, bias=True)
  (softmax): Softmax(dim=1)
)
11-Nov-23 18:21:39:TwoTowerRankerRecommenderModel:{'opts': Namespace(datasetFolder='./datasets/ml-100k', modelName='beginner-swan', pretrainedHfModelName='distilbert-base-uncased', train_bs=16, val_bs=64, lr=0.0003, version='4312', n_rows=10000), 'runtime_args': ['--worker=3', '--device=auto']}
11-Nov-23 18:21:39:TwoTowerRankerRecommenderModel:{'train_size': 7500, 'val_size': 2500}
11-Nov-23 18:21:42:TwoTowerRankerRecommenderModel:model lightning TwoTowerRecommenderRankerLitModel(
  (user_preference_model): UserPreferencesModel(
    (pretrained_model): DistilBertModel(
      (embeddings): Embeddings(
        (word_embeddings): Embedding(30522, 768, padding_idx=0)
        (position_embeddings): Embedding(512, 768)
        (LayerNorm): LayerNorm((768,), eps=1e-12, elementwise_affine=True)
        (dropout): Dropout(p=0.1, inplace=False)
      )
      (transformer): Transformer(
        (layer): ModuleList(
          (0-5): 6 x TransformerBlock(
            (attention): MultiHeadSelfAttention(
              (dropout): Dropout(p=0.1, inplace=False)
              (q_lin): Linear(in_features=768, out_features=768, bias=True)
              (k_lin): Linear(in_features=768, out_features=768, bias=True)
              (v_lin): Linear(in_features=768, out_features=768, bias=True)
              (out_lin): Linear(in_features=768, out_features=768, bias=True)
            )
            (sa_layer_norm): LayerNorm((768,), eps=1e-12, elementwise_affine=True)
            (ffn): FFN(
              (dropout): Dropout(p=0.1, inplace=False)
              (lin1): Linear(in_features=768, out_features=3072, bias=True)
              (lin2): Linear(in_features=3072, out_features=768, bias=True)
              (activation): GELUActivation()
            )
            (output_layer_norm): LayerNorm((768,), eps=1e-12, elementwise_affine=True)
          )
        )
      )
    )
    (linear): Linear(in_features=768, out_features=768, bias=True)
    (dropout): Dropout(p=0.3, inplace=False)
    (clf): Linear(in_features=768, out_features=384, bias=True)
  )
  (content_preference_model): ContentPreferencesModel(
    (pretrained_model): DistilBertModel(
      (embeddings): Embeddings(
        (word_embeddings): Embedding(30522, 768, padding_idx=0)
        (position_embeddings): Embedding(512, 768)
        (LayerNorm): LayerNorm((768,), eps=1e-12, elementwise_affine=True)
        (dropout): Dropout(p=0.1, inplace=False)
      )
      (transformer): Transformer(
        (layer): ModuleList(
          (0-5): 6 x TransformerBlock(
            (attention): MultiHeadSelfAttention(
              (dropout): Dropout(p=0.1, inplace=False)
              (q_lin): Linear(in_features=768, out_features=768, bias=True)
              (k_lin): Linear(in_features=768, out_features=768, bias=True)
              (v_lin): Linear(in_features=768, out_features=768, bias=True)
              (out_lin): Linear(in_features=768, out_features=768, bias=True)
            )
            (sa_layer_norm): LayerNorm((768,), eps=1e-12, elementwise_affine=True)
            (ffn): FFN(
              (dropout): Dropout(p=0.1, inplace=False)
              (lin1): Linear(in_features=768, out_features=3072, bias=True)
              (lin2): Linear(in_features=3072, out_features=768, bias=True)
              (activation): GELUActivation()
            )
            (output_layer_norm): LayerNorm((768,), eps=1e-12, elementwise_affine=True)
          )
        )
      )
    )
    (linear): Linear(in_features=768, out_features=768, bias=True)
    (dropout): Dropout(p=0.3, inplace=False)
    (clf): Linear(in_features=768, out_features=384, bias=True)
  )
  (layer_normalizer): LayerNorm((768,), eps=1e-05, elementwise_affine=True)
  (light_se): LightSqueezeExicitationModel(
    (softmax): Softmax(dim=1)
    (excitation_layer): Linear(in_features=768, out_features=768, bias=False)
  )
  (combiner): Linear(in_features=768, out_features=768, bias=True)
  (dropout): Dropout(p=0.3, inplace=False)
  (classifier): Linear(in_features=768, out_features=768, bias=True)
  (rating_predictor): Linear(in_features=768, out_features=5, bias=True)
  (softmax): Softmax(dim=1)
)
11-Nov-23 18:21:48:TwoTowerRankerRecommenderModel:{'opts': Namespace(datasetFolder='./datasets/ml-100k', modelName='beginner-swan', pretrainedHfModelName='distilbert-base-uncased', train_bs=16, val_bs=64, lr=0.0003, version='9254', n_rows=10000), 'runtime_args': ['--worker=3', '--device=auto']}
11-Nov-23 18:21:49:TwoTowerRankerRecommenderModel:{'train_size': 7500, 'val_size': 2500}
11-Nov-23 18:21:51:TwoTowerRankerRecommenderModel:model lightning TwoTowerRecommenderRankerLitModel(
  (user_preference_model): UserPreferencesModel(
    (pretrained_model): DistilBertModel(
      (embeddings): Embeddings(
        (word_embeddings): Embedding(30522, 768, padding_idx=0)
        (position_embeddings): Embedding(512, 768)
        (LayerNorm): LayerNorm((768,), eps=1e-12, elementwise_affine=True)
        (dropout): Dropout(p=0.1, inplace=False)
      )
      (transformer): Transformer(
        (layer): ModuleList(
          (0-5): 6 x TransformerBlock(
            (attention): MultiHeadSelfAttention(
              (dropout): Dropout(p=0.1, inplace=False)
              (q_lin): Linear(in_features=768, out_features=768, bias=True)
              (k_lin): Linear(in_features=768, out_features=768, bias=True)
              (v_lin): Linear(in_features=768, out_features=768, bias=True)
              (out_lin): Linear(in_features=768, out_features=768, bias=True)
            )
            (sa_layer_norm): LayerNorm((768,), eps=1e-12, elementwise_affine=True)
            (ffn): FFN(
              (dropout): Dropout(p=0.1, inplace=False)
              (lin1): Linear(in_features=768, out_features=3072, bias=True)
              (lin2): Linear(in_features=3072, out_features=768, bias=True)
              (activation): GELUActivation()
            )
            (output_layer_norm): LayerNorm((768,), eps=1e-12, elementwise_affine=True)
          )
        )
      )
    )
    (linear): Linear(in_features=768, out_features=768, bias=True)
    (dropout): Dropout(p=0.3, inplace=False)
    (clf): Linear(in_features=768, out_features=384, bias=True)
  )
  (content_preference_model): ContentPreferencesModel(
    (pretrained_model): DistilBertModel(
      (embeddings): Embeddings(
        (word_embeddings): Embedding(30522, 768, padding_idx=0)
        (position_embeddings): Embedding(512, 768)
        (LayerNorm): LayerNorm((768,), eps=1e-12, elementwise_affine=True)
        (dropout): Dropout(p=0.1, inplace=False)
      )
      (transformer): Transformer(
        (layer): ModuleList(
          (0-5): 6 x TransformerBlock(
            (attention): MultiHeadSelfAttention(
              (dropout): Dropout(p=0.1, inplace=False)
              (q_lin): Linear(in_features=768, out_features=768, bias=True)
              (k_lin): Linear(in_features=768, out_features=768, bias=True)
              (v_lin): Linear(in_features=768, out_features=768, bias=True)
              (out_lin): Linear(in_features=768, out_features=768, bias=True)
            )
            (sa_layer_norm): LayerNorm((768,), eps=1e-12, elementwise_affine=True)
            (ffn): FFN(
              (dropout): Dropout(p=0.1, inplace=False)
              (lin1): Linear(in_features=768, out_features=3072, bias=True)
              (lin2): Linear(in_features=3072, out_features=768, bias=True)
              (activation): GELUActivation()
            )
            (output_layer_norm): LayerNorm((768,), eps=1e-12, elementwise_affine=True)
          )
        )
      )
    )
    (linear): Linear(in_features=768, out_features=768, bias=True)
    (dropout): Dropout(p=0.3, inplace=False)
    (clf): Linear(in_features=768, out_features=384, bias=True)
  )
  (layer_normalizer): LayerNorm((768,), eps=1e-05, elementwise_affine=True)
  (light_se): LightSqueezeExicitationModel(
    (softmax): Softmax(dim=1)
    (excitation_layer): Linear(in_features=768, out_features=768, bias=False)
  )
  (combiner): Linear(in_features=768, out_features=768, bias=True)
  (dropout): Dropout(p=0.3, inplace=False)
  (classifier): Linear(in_features=768, out_features=768, bias=True)
  (rating_predictor): Linear(in_features=768, out_features=5, bias=True)
  (softmax): Softmax(dim=1)
)
11-Nov-23 18:22:10:TwoTowerRankerRecommenderModel:{'opts': Namespace(datasetFolder='./datasets/ml-100k', modelName='beginner-swan', pretrainedHfModelName='distilbert-base-uncased', train_bs=16, val_bs=64, lr=0.0003, version='9116', n_rows=10000), 'runtime_args': ['--worker=3', '--device=auto']}
11-Nov-23 18:22:11:TwoTowerRankerRecommenderModel:{'train_size': 7500, 'val_size': 2500}
11-Nov-23 18:22:14:TwoTowerRankerRecommenderModel:model lightning TwoTowerRecommenderRankerLitModel(
  (user_preference_model): UserPreferencesModel(
    (pretrained_model): DistilBertModel(
      (embeddings): Embeddings(
        (word_embeddings): Embedding(30522, 768, padding_idx=0)
        (position_embeddings): Embedding(512, 768)
        (LayerNorm): LayerNorm((768,), eps=1e-12, elementwise_affine=True)
        (dropout): Dropout(p=0.1, inplace=False)
      )
      (transformer): Transformer(
        (layer): ModuleList(
          (0-5): 6 x TransformerBlock(
            (attention): MultiHeadSelfAttention(
              (dropout): Dropout(p=0.1, inplace=False)
              (q_lin): Linear(in_features=768, out_features=768, bias=True)
              (k_lin): Linear(in_features=768, out_features=768, bias=True)
              (v_lin): Linear(in_features=768, out_features=768, bias=True)
              (out_lin): Linear(in_features=768, out_features=768, bias=True)
            )
            (sa_layer_norm): LayerNorm((768,), eps=1e-12, elementwise_affine=True)
            (ffn): FFN(
              (dropout): Dropout(p=0.1, inplace=False)
              (lin1): Linear(in_features=768, out_features=3072, bias=True)
              (lin2): Linear(in_features=3072, out_features=768, bias=True)
              (activation): GELUActivation()
            )
            (output_layer_norm): LayerNorm((768,), eps=1e-12, elementwise_affine=True)
          )
        )
      )
    )
    (linear): Linear(in_features=768, out_features=768, bias=True)
    (dropout): Dropout(p=0.3, inplace=False)
    (clf): Linear(in_features=768, out_features=384, bias=True)
  )
  (content_preference_model): ContentPreferencesModel(
    (pretrained_model): DistilBertModel(
      (embeddings): Embeddings(
        (word_embeddings): Embedding(30522, 768, padding_idx=0)
        (position_embeddings): Embedding(512, 768)
        (LayerNorm): LayerNorm((768,), eps=1e-12, elementwise_affine=True)
        (dropout): Dropout(p=0.1, inplace=False)
      )
      (transformer): Transformer(
        (layer): ModuleList(
          (0-5): 6 x TransformerBlock(
            (attention): MultiHeadSelfAttention(
              (dropout): Dropout(p=0.1, inplace=False)
              (q_lin): Linear(in_features=768, out_features=768, bias=True)
              (k_lin): Linear(in_features=768, out_features=768, bias=True)
              (v_lin): Linear(in_features=768, out_features=768, bias=True)
              (out_lin): Linear(in_features=768, out_features=768, bias=True)
            )
            (sa_layer_norm): LayerNorm((768,), eps=1e-12, elementwise_affine=True)
            (ffn): FFN(
              (dropout): Dropout(p=0.1, inplace=False)
              (lin1): Linear(in_features=768, out_features=3072, bias=True)
              (lin2): Linear(in_features=3072, out_features=768, bias=True)
              (activation): GELUActivation()
            )
            (output_layer_norm): LayerNorm((768,), eps=1e-12, elementwise_affine=True)
          )
        )
      )
    )
    (linear): Linear(in_features=768, out_features=768, bias=True)
    (dropout): Dropout(p=0.3, inplace=False)
    (clf): Linear(in_features=768, out_features=384, bias=True)
  )
  (layer_normalizer): LayerNorm((768,), eps=1e-05, elementwise_affine=True)
  (light_se): LightSqueezeExicitationModel(
    (softmax): Softmax(dim=1)
    (excitation_layer): Linear(in_features=768, out_features=768, bias=False)
  )
  (combiner): Linear(in_features=768, out_features=768, bias=True)
  (dropout): Dropout(p=0.3, inplace=False)
  (classifier): Linear(in_features=768, out_features=768, bias=True)
  (rating_predictor): Linear(in_features=768, out_features=5, bias=True)
  (softmax): Softmax(dim=1)
)
11-Nov-23 18:22:26:TwoTowerRankerRecommenderModel:{'opts': Namespace(datasetFolder='./datasets/ml-100k', modelName='beginner-swan', pretrainedHfModelName='distilbert-base-uncased', train_bs=16, val_bs=64, lr=0.0003, version='9155', n_rows=10000), 'runtime_args': ['--worker=3', '--device=auto']}
11-Nov-23 18:22:27:TwoTowerRankerRecommenderModel:{'train_size': 7500, 'val_size': 2500}
11-Nov-23 18:22:30:TwoTowerRankerRecommenderModel:model lightning TwoTowerRecommenderRankerLitModel(
  (user_preference_model): UserPreferencesModel(
    (pretrained_model): DistilBertModel(
      (embeddings): Embeddings(
        (word_embeddings): Embedding(30522, 768, padding_idx=0)
        (position_embeddings): Embedding(512, 768)
        (LayerNorm): LayerNorm((768,), eps=1e-12, elementwise_affine=True)
        (dropout): Dropout(p=0.1, inplace=False)
      )
      (transformer): Transformer(
        (layer): ModuleList(
          (0-5): 6 x TransformerBlock(
            (attention): MultiHeadSelfAttention(
              (dropout): Dropout(p=0.1, inplace=False)
              (q_lin): Linear(in_features=768, out_features=768, bias=True)
              (k_lin): Linear(in_features=768, out_features=768, bias=True)
              (v_lin): Linear(in_features=768, out_features=768, bias=True)
              (out_lin): Linear(in_features=768, out_features=768, bias=True)
            )
            (sa_layer_norm): LayerNorm((768,), eps=1e-12, elementwise_affine=True)
            (ffn): FFN(
              (dropout): Dropout(p=0.1, inplace=False)
              (lin1): Linear(in_features=768, out_features=3072, bias=True)
              (lin2): Linear(in_features=3072, out_features=768, bias=True)
              (activation): GELUActivation()
            )
            (output_layer_norm): LayerNorm((768,), eps=1e-12, elementwise_affine=True)
          )
        )
      )
    )
    (linear): Linear(in_features=768, out_features=768, bias=True)
    (dropout): Dropout(p=0.3, inplace=False)
    (clf): Linear(in_features=768, out_features=384, bias=True)
  )
  (content_preference_model): ContentPreferencesModel(
    (pretrained_model): DistilBertModel(
      (embeddings): Embeddings(
        (word_embeddings): Embedding(30522, 768, padding_idx=0)
        (position_embeddings): Embedding(512, 768)
        (LayerNorm): LayerNorm((768,), eps=1e-12, elementwise_affine=True)
        (dropout): Dropout(p=0.1, inplace=False)
      )
      (transformer): Transformer(
        (layer): ModuleList(
          (0-5): 6 x TransformerBlock(
            (attention): MultiHeadSelfAttention(
              (dropout): Dropout(p=0.1, inplace=False)
              (q_lin): Linear(in_features=768, out_features=768, bias=True)
              (k_lin): Linear(in_features=768, out_features=768, bias=True)
              (v_lin): Linear(in_features=768, out_features=768, bias=True)
              (out_lin): Linear(in_features=768, out_features=768, bias=True)
            )
            (sa_layer_norm): LayerNorm((768,), eps=1e-12, elementwise_affine=True)
            (ffn): FFN(
              (dropout): Dropout(p=0.1, inplace=False)
              (lin1): Linear(in_features=768, out_features=3072, bias=True)
              (lin2): Linear(in_features=3072, out_features=768, bias=True)
              (activation): GELUActivation()
            )
            (output_layer_norm): LayerNorm((768,), eps=1e-12, elementwise_affine=True)
          )
        )
      )
    )
    (linear): Linear(in_features=768, out_features=768, bias=True)
    (dropout): Dropout(p=0.3, inplace=False)
    (clf): Linear(in_features=768, out_features=384, bias=True)
  )
  (layer_normalizer): LayerNorm((768,), eps=1e-05, elementwise_affine=True)
  (light_se): LightSqueezeExicitationModel(
    (softmax): Softmax(dim=1)
    (excitation_layer): Linear(in_features=768, out_features=768, bias=False)
  )
  (combiner): Linear(in_features=768, out_features=768, bias=True)
  (dropout): Dropout(p=0.3, inplace=False)
  (classifier): Linear(in_features=768, out_features=768, bias=True)
  (rating_predictor): Linear(in_features=768, out_features=5, bias=True)
  (softmax): Softmax(dim=1)
)
11-Nov-23 18:22:42:TwoTowerRankerRecommenderModel:{'opts': Namespace(datasetFolder='./datasets/ml-100k', modelName='beginner-swan', pretrainedHfModelName='distilbert-base-uncased', train_bs=16, val_bs=64, lr=0.0003, version='6679', n_rows=10000), 'runtime_args': ['--worker=3', '--device=auto']}
11-Nov-23 18:22:43:TwoTowerRankerRecommenderModel:{'train_size': 7500, 'val_size': 2500}
11-Nov-23 18:22:46:TwoTowerRankerRecommenderModel:model lightning TwoTowerRecommenderRankerLitModel(
  (user_preference_model): UserPreferencesModel(
    (pretrained_model): DistilBertModel(
      (embeddings): Embeddings(
        (word_embeddings): Embedding(30522, 768, padding_idx=0)
        (position_embeddings): Embedding(512, 768)
        (LayerNorm): LayerNorm((768,), eps=1e-12, elementwise_affine=True)
        (dropout): Dropout(p=0.1, inplace=False)
      )
      (transformer): Transformer(
        (layer): ModuleList(
          (0-5): 6 x TransformerBlock(
            (attention): MultiHeadSelfAttention(
              (dropout): Dropout(p=0.1, inplace=False)
              (q_lin): Linear(in_features=768, out_features=768, bias=True)
              (k_lin): Linear(in_features=768, out_features=768, bias=True)
              (v_lin): Linear(in_features=768, out_features=768, bias=True)
              (out_lin): Linear(in_features=768, out_features=768, bias=True)
            )
            (sa_layer_norm): LayerNorm((768,), eps=1e-12, elementwise_affine=True)
            (ffn): FFN(
              (dropout): Dropout(p=0.1, inplace=False)
              (lin1): Linear(in_features=768, out_features=3072, bias=True)
              (lin2): Linear(in_features=3072, out_features=768, bias=True)
              (activation): GELUActivation()
            )
            (output_layer_norm): LayerNorm((768,), eps=1e-12, elementwise_affine=True)
          )
        )
      )
    )
    (linear): Linear(in_features=768, out_features=768, bias=True)
    (dropout): Dropout(p=0.3, inplace=False)
    (clf): Linear(in_features=768, out_features=384, bias=True)
  )
  (content_preference_model): ContentPreferencesModel(
    (pretrained_model): DistilBertModel(
      (embeddings): Embeddings(
        (word_embeddings): Embedding(30522, 768, padding_idx=0)
        (position_embeddings): Embedding(512, 768)
        (LayerNorm): LayerNorm((768,), eps=1e-12, elementwise_affine=True)
        (dropout): Dropout(p=0.1, inplace=False)
      )
      (transformer): Transformer(
        (layer): ModuleList(
          (0-5): 6 x TransformerBlock(
            (attention): MultiHeadSelfAttention(
              (dropout): Dropout(p=0.1, inplace=False)
              (q_lin): Linear(in_features=768, out_features=768, bias=True)
              (k_lin): Linear(in_features=768, out_features=768, bias=True)
              (v_lin): Linear(in_features=768, out_features=768, bias=True)
              (out_lin): Linear(in_features=768, out_features=768, bias=True)
            )
            (sa_layer_norm): LayerNorm((768,), eps=1e-12, elementwise_affine=True)
            (ffn): FFN(
              (dropout): Dropout(p=0.1, inplace=False)
              (lin1): Linear(in_features=768, out_features=3072, bias=True)
              (lin2): Linear(in_features=3072, out_features=768, bias=True)
              (activation): GELUActivation()
            )
            (output_layer_norm): LayerNorm((768,), eps=1e-12, elementwise_affine=True)
          )
        )
      )
    )
    (linear): Linear(in_features=768, out_features=768, bias=True)
    (dropout): Dropout(p=0.3, inplace=False)
    (clf): Linear(in_features=768, out_features=384, bias=True)
  )
  (layer_normalizer): LayerNorm((768,), eps=1e-05, elementwise_affine=True)
  (light_se): LightSqueezeExicitationModel(
    (softmax): Softmax(dim=1)
    (excitation_layer): Linear(in_features=768, out_features=768, bias=False)
  )
  (combiner): Linear(in_features=768, out_features=768, bias=True)
  (dropout): Dropout(p=0.3, inplace=False)
  (classifier): Linear(in_features=768, out_features=768, bias=True)
  (rating_predictor): Linear(in_features=768, out_features=5, bias=True)
  (softmax): Softmax(dim=1)
)
11-Nov-23 18:23:04:TwoTowerRankerRecommenderModel:{'opts': Namespace(datasetFolder='./datasets/ml-100k', modelName='beginner-swan', pretrainedHfModelName='distilbert-base-uncased', train_bs=16, val_bs=64, lr=0.0003, version='9552', n_rows=10000), 'runtime_args': ['--worker=3', '--device=auto']}
11-Nov-23 18:23:04:TwoTowerRankerRecommenderModel:{'train_size': 7500, 'val_size': 2500}
11-Nov-23 18:23:07:TwoTowerRankerRecommenderModel:model lightning TwoTowerRecommenderRankerLitModel(
  (user_preference_model): UserPreferencesModel(
    (pretrained_model): DistilBertModel(
      (embeddings): Embeddings(
        (word_embeddings): Embedding(30522, 768, padding_idx=0)
        (position_embeddings): Embedding(512, 768)
        (LayerNorm): LayerNorm((768,), eps=1e-12, elementwise_affine=True)
        (dropout): Dropout(p=0.1, inplace=False)
      )
      (transformer): Transformer(
        (layer): ModuleList(
          (0-5): 6 x TransformerBlock(
            (attention): MultiHeadSelfAttention(
              (dropout): Dropout(p=0.1, inplace=False)
              (q_lin): Linear(in_features=768, out_features=768, bias=True)
              (k_lin): Linear(in_features=768, out_features=768, bias=True)
              (v_lin): Linear(in_features=768, out_features=768, bias=True)
              (out_lin): Linear(in_features=768, out_features=768, bias=True)
            )
            (sa_layer_norm): LayerNorm((768,), eps=1e-12, elementwise_affine=True)
            (ffn): FFN(
              (dropout): Dropout(p=0.1, inplace=False)
              (lin1): Linear(in_features=768, out_features=3072, bias=True)
              (lin2): Linear(in_features=3072, out_features=768, bias=True)
              (activation): GELUActivation()
            )
            (output_layer_norm): LayerNorm((768,), eps=1e-12, elementwise_affine=True)
          )
        )
      )
    )
    (linear): Linear(in_features=768, out_features=768, bias=True)
    (dropout): Dropout(p=0.3, inplace=False)
    (clf): Linear(in_features=768, out_features=384, bias=True)
  )
  (content_preference_model): ContentPreferencesModel(
    (pretrained_model): DistilBertModel(
      (embeddings): Embeddings(
        (word_embeddings): Embedding(30522, 768, padding_idx=0)
        (position_embeddings): Embedding(512, 768)
        (LayerNorm): LayerNorm((768,), eps=1e-12, elementwise_affine=True)
        (dropout): Dropout(p=0.1, inplace=False)
      )
      (transformer): Transformer(
        (layer): ModuleList(
          (0-5): 6 x TransformerBlock(
            (attention): MultiHeadSelfAttention(
              (dropout): Dropout(p=0.1, inplace=False)
              (q_lin): Linear(in_features=768, out_features=768, bias=True)
              (k_lin): Linear(in_features=768, out_features=768, bias=True)
              (v_lin): Linear(in_features=768, out_features=768, bias=True)
              (out_lin): Linear(in_features=768, out_features=768, bias=True)
            )
            (sa_layer_norm): LayerNorm((768,), eps=1e-12, elementwise_affine=True)
            (ffn): FFN(
              (dropout): Dropout(p=0.1, inplace=False)
              (lin1): Linear(in_features=768, out_features=3072, bias=True)
              (lin2): Linear(in_features=3072, out_features=768, bias=True)
              (activation): GELUActivation()
            )
            (output_layer_norm): LayerNorm((768,), eps=1e-12, elementwise_affine=True)
          )
        )
      )
    )
    (linear): Linear(in_features=768, out_features=768, bias=True)
    (dropout): Dropout(p=0.3, inplace=False)
    (clf): Linear(in_features=768, out_features=384, bias=True)
  )
  (layer_normalizer): LayerNorm((768,), eps=1e-05, elementwise_affine=True)
  (light_se): LightSqueezeExicitationModel(
    (softmax): Softmax(dim=1)
    (excitation_layer): Linear(in_features=768, out_features=768, bias=False)
  )
  (combiner): Linear(in_features=768, out_features=768, bias=True)
  (dropout): Dropout(p=0.3, inplace=False)
  (classifier): Linear(in_features=768, out_features=768, bias=True)
  (rating_predictor): Linear(in_features=768, out_features=5, bias=True)
  (softmax): Softmax(dim=1)
)
11-Nov-23 18:23:22:TwoTowerRankerRecommenderModel:{'opts': Namespace(datasetFolder='./datasets/ml-100k', modelName='beginner-swan', pretrainedHfModelName='distilbert-base-uncased', train_bs=16, val_bs=64, lr=0.0003, version='8337', n_rows=10000), 'runtime_args': ['--worker=3', '--device=auto']}
11-Nov-23 18:23:22:TwoTowerRankerRecommenderModel:{'train_size': 7500, 'val_size': 2500}
11-Nov-23 18:23:24:TwoTowerRankerRecommenderModel:model lightning TwoTowerRecommenderRankerLitModel(
  (user_preference_model): UserPreferencesModel(
    (pretrained_model): DistilBertModel(
      (embeddings): Embeddings(
        (word_embeddings): Embedding(30522, 768, padding_idx=0)
        (position_embeddings): Embedding(512, 768)
        (LayerNorm): LayerNorm((768,), eps=1e-12, elementwise_affine=True)
        (dropout): Dropout(p=0.1, inplace=False)
      )
      (transformer): Transformer(
        (layer): ModuleList(
          (0-5): 6 x TransformerBlock(
            (attention): MultiHeadSelfAttention(
              (dropout): Dropout(p=0.1, inplace=False)
              (q_lin): Linear(in_features=768, out_features=768, bias=True)
              (k_lin): Linear(in_features=768, out_features=768, bias=True)
              (v_lin): Linear(in_features=768, out_features=768, bias=True)
              (out_lin): Linear(in_features=768, out_features=768, bias=True)
            )
            (sa_layer_norm): LayerNorm((768,), eps=1e-12, elementwise_affine=True)
            (ffn): FFN(
              (dropout): Dropout(p=0.1, inplace=False)
              (lin1): Linear(in_features=768, out_features=3072, bias=True)
              (lin2): Linear(in_features=3072, out_features=768, bias=True)
              (activation): GELUActivation()
            )
            (output_layer_norm): LayerNorm((768,), eps=1e-12, elementwise_affine=True)
          )
        )
      )
    )
    (linear): Linear(in_features=768, out_features=768, bias=True)
    (dropout): Dropout(p=0.3, inplace=False)
    (clf): Linear(in_features=768, out_features=384, bias=True)
  )
  (content_preference_model): ContentPreferencesModel(
    (pretrained_model): DistilBertModel(
      (embeddings): Embeddings(
        (word_embeddings): Embedding(30522, 768, padding_idx=0)
        (position_embeddings): Embedding(512, 768)
        (LayerNorm): LayerNorm((768,), eps=1e-12, elementwise_affine=True)
        (dropout): Dropout(p=0.1, inplace=False)
      )
      (transformer): Transformer(
        (layer): ModuleList(
          (0-5): 6 x TransformerBlock(
            (attention): MultiHeadSelfAttention(
              (dropout): Dropout(p=0.1, inplace=False)
              (q_lin): Linear(in_features=768, out_features=768, bias=True)
              (k_lin): Linear(in_features=768, out_features=768, bias=True)
              (v_lin): Linear(in_features=768, out_features=768, bias=True)
              (out_lin): Linear(in_features=768, out_features=768, bias=True)
            )
            (sa_layer_norm): LayerNorm((768,), eps=1e-12, elementwise_affine=True)
            (ffn): FFN(
              (dropout): Dropout(p=0.1, inplace=False)
              (lin1): Linear(in_features=768, out_features=3072, bias=True)
              (lin2): Linear(in_features=3072, out_features=768, bias=True)
              (activation): GELUActivation()
            )
            (output_layer_norm): LayerNorm((768,), eps=1e-12, elementwise_affine=True)
          )
        )
      )
    )
    (linear): Linear(in_features=768, out_features=768, bias=True)
    (dropout): Dropout(p=0.3, inplace=False)
    (clf): Linear(in_features=768, out_features=384, bias=True)
  )
  (layer_normalizer): LayerNorm((768,), eps=1e-05, elementwise_affine=True)
  (light_se): LightSqueezeExicitationModel(
    (softmax): Softmax(dim=1)
    (excitation_layer): Linear(in_features=768, out_features=768, bias=False)
  )
  (combiner): Linear(in_features=768, out_features=768, bias=True)
  (dropout): Dropout(p=0.3, inplace=False)
  (classifier): Linear(in_features=768, out_features=768, bias=True)
  (rating_predictor): Linear(in_features=768, out_features=5, bias=True)
  (softmax): Softmax(dim=1)
)
11-Nov-23 18:23:52:TwoTowerRankerRecommenderModel:{'opts': Namespace(datasetFolder='./datasets/ml-100k', modelName='beginner-swan', pretrainedHfModelName='distilbert-base-uncased', train_bs=16, val_bs=64, lr=0.0003, version='6654', n_rows=10000), 'runtime_args': ['--worker=3', '--device=auto']}
11-Nov-23 18:23:53:TwoTowerRankerRecommenderModel:{'train_size': 7500, 'val_size': 2500}
11-Nov-23 18:23:56:TwoTowerRankerRecommenderModel:model lightning TwoTowerRecommenderRankerLitModel(
  (user_preference_model): UserPreferencesModel(
    (pretrained_model): DistilBertModel(
      (embeddings): Embeddings(
        (word_embeddings): Embedding(30522, 768, padding_idx=0)
        (position_embeddings): Embedding(512, 768)
        (LayerNorm): LayerNorm((768,), eps=1e-12, elementwise_affine=True)
        (dropout): Dropout(p=0.1, inplace=False)
      )
      (transformer): Transformer(
        (layer): ModuleList(
          (0-5): 6 x TransformerBlock(
            (attention): MultiHeadSelfAttention(
              (dropout): Dropout(p=0.1, inplace=False)
              (q_lin): Linear(in_features=768, out_features=768, bias=True)
              (k_lin): Linear(in_features=768, out_features=768, bias=True)
              (v_lin): Linear(in_features=768, out_features=768, bias=True)
              (out_lin): Linear(in_features=768, out_features=768, bias=True)
            )
            (sa_layer_norm): LayerNorm((768,), eps=1e-12, elementwise_affine=True)
            (ffn): FFN(
              (dropout): Dropout(p=0.1, inplace=False)
              (lin1): Linear(in_features=768, out_features=3072, bias=True)
              (lin2): Linear(in_features=3072, out_features=768, bias=True)
              (activation): GELUActivation()
            )
            (output_layer_norm): LayerNorm((768,), eps=1e-12, elementwise_affine=True)
          )
        )
      )
    )
    (linear): Linear(in_features=768, out_features=768, bias=True)
    (dropout): Dropout(p=0.3, inplace=False)
    (clf): Linear(in_features=768, out_features=384, bias=True)
  )
  (content_preference_model): ContentPreferencesModel(
    (pretrained_model): DistilBertModel(
      (embeddings): Embeddings(
        (word_embeddings): Embedding(30522, 768, padding_idx=0)
        (position_embeddings): Embedding(512, 768)
        (LayerNorm): LayerNorm((768,), eps=1e-12, elementwise_affine=True)
        (dropout): Dropout(p=0.1, inplace=False)
      )
      (transformer): Transformer(
        (layer): ModuleList(
          (0-5): 6 x TransformerBlock(
            (attention): MultiHeadSelfAttention(
              (dropout): Dropout(p=0.1, inplace=False)
              (q_lin): Linear(in_features=768, out_features=768, bias=True)
              (k_lin): Linear(in_features=768, out_features=768, bias=True)
              (v_lin): Linear(in_features=768, out_features=768, bias=True)
              (out_lin): Linear(in_features=768, out_features=768, bias=True)
            )
            (sa_layer_norm): LayerNorm((768,), eps=1e-12, elementwise_affine=True)
            (ffn): FFN(
              (dropout): Dropout(p=0.1, inplace=False)
              (lin1): Linear(in_features=768, out_features=3072, bias=True)
              (lin2): Linear(in_features=3072, out_features=768, bias=True)
              (activation): GELUActivation()
            )
            (output_layer_norm): LayerNorm((768,), eps=1e-12, elementwise_affine=True)
          )
        )
      )
    )
    (linear): Linear(in_features=768, out_features=768, bias=True)
    (dropout): Dropout(p=0.3, inplace=False)
    (clf): Linear(in_features=768, out_features=384, bias=True)
  )
  (layer_normalizer): LayerNorm((768,), eps=1e-05, elementwise_affine=True)
  (light_se): LightSqueezeExicitationModel(
    (softmax): Softmax(dim=1)
    (excitation_layer): Linear(in_features=768, out_features=768, bias=False)
  )
  (combiner): Linear(in_features=768, out_features=768, bias=True)
  (dropout): Dropout(p=0.3, inplace=False)
  (classifier): Linear(in_features=768, out_features=768, bias=True)
  (rating_predictor): Linear(in_features=768, out_features=5, bias=True)
  (softmax): Softmax(dim=1)
)
11-Nov-23 18:24:37:TwoTowerRankerRecommenderModel:{'opts': Namespace(datasetFolder='./datasets/ml-100k', modelName='beginner-swan', pretrainedHfModelName='distilbert-base-uncased', train_bs=16, val_bs=64, lr=0.0003, version='3440', n_rows=10000), 'runtime_args': ['--worker=3', '--device=auto']}
11-Nov-23 18:24:38:TwoTowerRankerRecommenderModel:{'train_size': 7500, 'val_size': 2500}
11-Nov-23 18:24:40:TwoTowerRankerRecommenderModel:model lightning TwoTowerRecommenderRankerLitModel(
  (user_preference_model): UserPreferencesModel(
    (pretrained_model): DistilBertModel(
      (embeddings): Embeddings(
        (word_embeddings): Embedding(30522, 768, padding_idx=0)
        (position_embeddings): Embedding(512, 768)
        (LayerNorm): LayerNorm((768,), eps=1e-12, elementwise_affine=True)
        (dropout): Dropout(p=0.1, inplace=False)
      )
      (transformer): Transformer(
        (layer): ModuleList(
          (0-5): 6 x TransformerBlock(
            (attention): MultiHeadSelfAttention(
              (dropout): Dropout(p=0.1, inplace=False)
              (q_lin): Linear(in_features=768, out_features=768, bias=True)
              (k_lin): Linear(in_features=768, out_features=768, bias=True)
              (v_lin): Linear(in_features=768, out_features=768, bias=True)
              (out_lin): Linear(in_features=768, out_features=768, bias=True)
            )
            (sa_layer_norm): LayerNorm((768,), eps=1e-12, elementwise_affine=True)
            (ffn): FFN(
              (dropout): Dropout(p=0.1, inplace=False)
              (lin1): Linear(in_features=768, out_features=3072, bias=True)
              (lin2): Linear(in_features=3072, out_features=768, bias=True)
              (activation): GELUActivation()
            )
            (output_layer_norm): LayerNorm((768,), eps=1e-12, elementwise_affine=True)
          )
        )
      )
    )
    (linear): Linear(in_features=768, out_features=768, bias=True)
    (dropout): Dropout(p=0.3, inplace=False)
    (clf): Linear(in_features=768, out_features=384, bias=True)
  )
  (content_preference_model): ContentPreferencesModel(
    (pretrained_model): DistilBertModel(
      (embeddings): Embeddings(
        (word_embeddings): Embedding(30522, 768, padding_idx=0)
        (position_embeddings): Embedding(512, 768)
        (LayerNorm): LayerNorm((768,), eps=1e-12, elementwise_affine=True)
        (dropout): Dropout(p=0.1, inplace=False)
      )
      (transformer): Transformer(
        (layer): ModuleList(
          (0-5): 6 x TransformerBlock(
            (attention): MultiHeadSelfAttention(
              (dropout): Dropout(p=0.1, inplace=False)
              (q_lin): Linear(in_features=768, out_features=768, bias=True)
              (k_lin): Linear(in_features=768, out_features=768, bias=True)
              (v_lin): Linear(in_features=768, out_features=768, bias=True)
              (out_lin): Linear(in_features=768, out_features=768, bias=True)
            )
            (sa_layer_norm): LayerNorm((768,), eps=1e-12, elementwise_affine=True)
            (ffn): FFN(
              (dropout): Dropout(p=0.1, inplace=False)
              (lin1): Linear(in_features=768, out_features=3072, bias=True)
              (lin2): Linear(in_features=3072, out_features=768, bias=True)
              (activation): GELUActivation()
            )
            (output_layer_norm): LayerNorm((768,), eps=1e-12, elementwise_affine=True)
          )
        )
      )
    )
    (linear): Linear(in_features=768, out_features=768, bias=True)
    (dropout): Dropout(p=0.3, inplace=False)
    (clf): Linear(in_features=768, out_features=384, bias=True)
  )
  (layer_normalizer): LayerNorm((768,), eps=1e-05, elementwise_affine=True)
  (light_se): LightSqueezeExicitationModel(
    (softmax): Softmax(dim=1)
    (excitation_layer): Linear(in_features=768, out_features=768, bias=False)
  )
  (combiner): Linear(in_features=768, out_features=768, bias=True)
  (dropout): Dropout(p=0.3, inplace=False)
  (classifier): Linear(in_features=768, out_features=768, bias=True)
  (rating_predictor): Linear(in_features=768, out_features=5, bias=True)
  (softmax): Softmax(dim=1)
)
11-Nov-23 18:24:53:TwoTowerRankerRecommenderModel:{'opts': Namespace(datasetFolder='./datasets/ml-100k', modelName='beginner-swan', pretrainedHfModelName='distilbert-base-uncased', train_bs=16, val_bs=64, lr=0.0003, version='8215', n_rows=10000), 'runtime_args': ['--worker=3', '--device=auto']}
11-Nov-23 18:24:53:TwoTowerRankerRecommenderModel:{'train_size': 7500, 'val_size': 2500}
11-Nov-23 18:24:56:TwoTowerRankerRecommenderModel:model lightning TwoTowerRecommenderRankerLitModel(
  (user_preference_model): UserPreferencesModel(
    (pretrained_model): DistilBertModel(
      (embeddings): Embeddings(
        (word_embeddings): Embedding(30522, 768, padding_idx=0)
        (position_embeddings): Embedding(512, 768)
        (LayerNorm): LayerNorm((768,), eps=1e-12, elementwise_affine=True)
        (dropout): Dropout(p=0.1, inplace=False)
      )
      (transformer): Transformer(
        (layer): ModuleList(
          (0-5): 6 x TransformerBlock(
            (attention): MultiHeadSelfAttention(
              (dropout): Dropout(p=0.1, inplace=False)
              (q_lin): Linear(in_features=768, out_features=768, bias=True)
              (k_lin): Linear(in_features=768, out_features=768, bias=True)
              (v_lin): Linear(in_features=768, out_features=768, bias=True)
              (out_lin): Linear(in_features=768, out_features=768, bias=True)
            )
            (sa_layer_norm): LayerNorm((768,), eps=1e-12, elementwise_affine=True)
            (ffn): FFN(
              (dropout): Dropout(p=0.1, inplace=False)
              (lin1): Linear(in_features=768, out_features=3072, bias=True)
              (lin2): Linear(in_features=3072, out_features=768, bias=True)
              (activation): GELUActivation()
            )
            (output_layer_norm): LayerNorm((768,), eps=1e-12, elementwise_affine=True)
          )
        )
      )
    )
    (linear): Linear(in_features=768, out_features=768, bias=True)
    (dropout): Dropout(p=0.3, inplace=False)
    (clf): Linear(in_features=768, out_features=384, bias=True)
  )
  (content_preference_model): ContentPreferencesModel(
    (pretrained_model): DistilBertModel(
      (embeddings): Embeddings(
        (word_embeddings): Embedding(30522, 768, padding_idx=0)
        (position_embeddings): Embedding(512, 768)
        (LayerNorm): LayerNorm((768,), eps=1e-12, elementwise_affine=True)
        (dropout): Dropout(p=0.1, inplace=False)
      )
      (transformer): Transformer(
        (layer): ModuleList(
          (0-5): 6 x TransformerBlock(
            (attention): MultiHeadSelfAttention(
              (dropout): Dropout(p=0.1, inplace=False)
              (q_lin): Linear(in_features=768, out_features=768, bias=True)
              (k_lin): Linear(in_features=768, out_features=768, bias=True)
              (v_lin): Linear(in_features=768, out_features=768, bias=True)
              (out_lin): Linear(in_features=768, out_features=768, bias=True)
            )
            (sa_layer_norm): LayerNorm((768,), eps=1e-12, elementwise_affine=True)
            (ffn): FFN(
              (dropout): Dropout(p=0.1, inplace=False)
              (lin1): Linear(in_features=768, out_features=3072, bias=True)
              (lin2): Linear(in_features=3072, out_features=768, bias=True)
              (activation): GELUActivation()
            )
            (output_layer_norm): LayerNorm((768,), eps=1e-12, elementwise_affine=True)
          )
        )
      )
    )
    (linear): Linear(in_features=768, out_features=768, bias=True)
    (dropout): Dropout(p=0.3, inplace=False)
    (clf): Linear(in_features=768, out_features=384, bias=True)
  )
  (layer_normalizer): LayerNorm((768,), eps=1e-05, elementwise_affine=True)
  (light_se): LightSqueezeExicitationModel(
    (softmax): Softmax(dim=1)
    (excitation_layer): Linear(in_features=768, out_features=768, bias=False)
  )
  (combiner): Linear(in_features=768, out_features=768, bias=True)
  (dropout): Dropout(p=0.3, inplace=False)
  (classifier): Linear(in_features=768, out_features=768, bias=True)
  (rating_predictor): Linear(in_features=768, out_features=5, bias=True)
  (softmax): Softmax(dim=1)
)
11-Nov-23 18:26:43:TwoTowerRankerRecommenderModel:{'opts': Namespace(datasetFolder='./datasets/ml-100k', modelName='beginner-swan', pretrainedHfModelName='distilbert-base-uncased', train_bs=16, val_bs=64, lr=0.0003, version='5335', n_rows=10000), 'runtime_args': ['--worker=3', '--device=auto']}
11-Nov-23 18:26:43:TwoTowerRankerRecommenderModel:{'train_size': 7500, 'val_size': 2500}
11-Nov-23 18:26:46:TwoTowerRankerRecommenderModel:model lightning TwoTowerRecommenderRankerLitModel(
  (user_preference_model): UserPreferencesModel(
    (pretrained_model): DistilBertModel(
      (embeddings): Embeddings(
        (word_embeddings): Embedding(30522, 768, padding_idx=0)
        (position_embeddings): Embedding(512, 768)
        (LayerNorm): LayerNorm((768,), eps=1e-12, elementwise_affine=True)
        (dropout): Dropout(p=0.1, inplace=False)
      )
      (transformer): Transformer(
        (layer): ModuleList(
          (0-5): 6 x TransformerBlock(
            (attention): MultiHeadSelfAttention(
              (dropout): Dropout(p=0.1, inplace=False)
              (q_lin): Linear(in_features=768, out_features=768, bias=True)
              (k_lin): Linear(in_features=768, out_features=768, bias=True)
              (v_lin): Linear(in_features=768, out_features=768, bias=True)
              (out_lin): Linear(in_features=768, out_features=768, bias=True)
            )
            (sa_layer_norm): LayerNorm((768,), eps=1e-12, elementwise_affine=True)
            (ffn): FFN(
              (dropout): Dropout(p=0.1, inplace=False)
              (lin1): Linear(in_features=768, out_features=3072, bias=True)
              (lin2): Linear(in_features=3072, out_features=768, bias=True)
              (activation): GELUActivation()
            )
            (output_layer_norm): LayerNorm((768,), eps=1e-12, elementwise_affine=True)
          )
        )
      )
    )
    (linear): Linear(in_features=768, out_features=768, bias=True)
    (dropout): Dropout(p=0.3, inplace=False)
    (clf): Linear(in_features=768, out_features=384, bias=True)
  )
  (content_preference_model): ContentPreferencesModel(
    (pretrained_model): DistilBertModel(
      (embeddings): Embeddings(
        (word_embeddings): Embedding(30522, 768, padding_idx=0)
        (position_embeddings): Embedding(512, 768)
        (LayerNorm): LayerNorm((768,), eps=1e-12, elementwise_affine=True)
        (dropout): Dropout(p=0.1, inplace=False)
      )
      (transformer): Transformer(
        (layer): ModuleList(
          (0-5): 6 x TransformerBlock(
            (attention): MultiHeadSelfAttention(
              (dropout): Dropout(p=0.1, inplace=False)
              (q_lin): Linear(in_features=768, out_features=768, bias=True)
              (k_lin): Linear(in_features=768, out_features=768, bias=True)
              (v_lin): Linear(in_features=768, out_features=768, bias=True)
              (out_lin): Linear(in_features=768, out_features=768, bias=True)
            )
            (sa_layer_norm): LayerNorm((768,), eps=1e-12, elementwise_affine=True)
            (ffn): FFN(
              (dropout): Dropout(p=0.1, inplace=False)
              (lin1): Linear(in_features=768, out_features=3072, bias=True)
              (lin2): Linear(in_features=3072, out_features=768, bias=True)
              (activation): GELUActivation()
            )
            (output_layer_norm): LayerNorm((768,), eps=1e-12, elementwise_affine=True)
          )
        )
      )
    )
    (linear): Linear(in_features=768, out_features=768, bias=True)
    (dropout): Dropout(p=0.3, inplace=False)
    (clf): Linear(in_features=768, out_features=384, bias=True)
  )
  (layer_normalizer): LayerNorm((768,), eps=1e-05, elementwise_affine=True)
  (light_se): LightSqueezeExicitationModel(
    (softmax): Softmax(dim=1)
    (excitation_layer): Linear(in_features=768, out_features=768, bias=False)
  )
  (combiner): Linear(in_features=768, out_features=768, bias=True)
  (dropout): Dropout(p=0.3, inplace=False)
  (classifier): Linear(in_features=768, out_features=768, bias=True)
  (rating_predictor): Linear(in_features=768, out_features=5, bias=True)
  (softmax): Softmax(dim=1)
)
11-Nov-23 18:27:19:TwoTowerRankerRecommenderModel:{'opts': Namespace(datasetFolder='./datasets/ml-100k', modelName='beginner-swan', pretrainedHfModelName='distilbert-base-uncased', train_bs=16, val_bs=64, lr=0.0003, version='4298', n_rows=10000), 'runtime_args': ['--worker=3', '--device=auto']}
11-Nov-23 18:27:19:TwoTowerRankerRecommenderModel:{'train_size': 7500, 'val_size': 2500}
11-Nov-23 18:27:22:TwoTowerRankerRecommenderModel:model lightning TwoTowerRecommenderRankerLitModel(
  (user_preference_model): UserPreferencesModel(
    (pretrained_model): DistilBertModel(
      (embeddings): Embeddings(
        (word_embeddings): Embedding(30522, 768, padding_idx=0)
        (position_embeddings): Embedding(512, 768)
        (LayerNorm): LayerNorm((768,), eps=1e-12, elementwise_affine=True)
        (dropout): Dropout(p=0.1, inplace=False)
      )
      (transformer): Transformer(
        (layer): ModuleList(
          (0-5): 6 x TransformerBlock(
            (attention): MultiHeadSelfAttention(
              (dropout): Dropout(p=0.1, inplace=False)
              (q_lin): Linear(in_features=768, out_features=768, bias=True)
              (k_lin): Linear(in_features=768, out_features=768, bias=True)
              (v_lin): Linear(in_features=768, out_features=768, bias=True)
              (out_lin): Linear(in_features=768, out_features=768, bias=True)
            )
            (sa_layer_norm): LayerNorm((768,), eps=1e-12, elementwise_affine=True)
            (ffn): FFN(
              (dropout): Dropout(p=0.1, inplace=False)
              (lin1): Linear(in_features=768, out_features=3072, bias=True)
              (lin2): Linear(in_features=3072, out_features=768, bias=True)
              (activation): GELUActivation()
            )
            (output_layer_norm): LayerNorm((768,), eps=1e-12, elementwise_affine=True)
          )
        )
      )
    )
    (linear): Linear(in_features=768, out_features=768, bias=True)
    (dropout): Dropout(p=0.3, inplace=False)
    (clf): Linear(in_features=768, out_features=384, bias=True)
  )
  (content_preference_model): ContentPreferencesModel(
    (pretrained_model): DistilBertModel(
      (embeddings): Embeddings(
        (word_embeddings): Embedding(30522, 768, padding_idx=0)
        (position_embeddings): Embedding(512, 768)
        (LayerNorm): LayerNorm((768,), eps=1e-12, elementwise_affine=True)
        (dropout): Dropout(p=0.1, inplace=False)
      )
      (transformer): Transformer(
        (layer): ModuleList(
          (0-5): 6 x TransformerBlock(
            (attention): MultiHeadSelfAttention(
              (dropout): Dropout(p=0.1, inplace=False)
              (q_lin): Linear(in_features=768, out_features=768, bias=True)
              (k_lin): Linear(in_features=768, out_features=768, bias=True)
              (v_lin): Linear(in_features=768, out_features=768, bias=True)
              (out_lin): Linear(in_features=768, out_features=768, bias=True)
            )
            (sa_layer_norm): LayerNorm((768,), eps=1e-12, elementwise_affine=True)
            (ffn): FFN(
              (dropout): Dropout(p=0.1, inplace=False)
              (lin1): Linear(in_features=768, out_features=3072, bias=True)
              (lin2): Linear(in_features=3072, out_features=768, bias=True)
              (activation): GELUActivation()
            )
            (output_layer_norm): LayerNorm((768,), eps=1e-12, elementwise_affine=True)
          )
        )
      )
    )
    (linear): Linear(in_features=768, out_features=768, bias=True)
    (dropout): Dropout(p=0.3, inplace=False)
    (clf): Linear(in_features=768, out_features=384, bias=True)
  )
  (layer_normalizer): LayerNorm((768,), eps=1e-05, elementwise_affine=True)
  (light_se): LightSqueezeExicitationModel(
    (softmax): Softmax(dim=1)
    (excitation_layer): Linear(in_features=768, out_features=768, bias=False)
  )
  (combiner): Linear(in_features=768, out_features=768, bias=True)
  (dropout): Dropout(p=0.3, inplace=False)
  (classifier): Linear(in_features=768, out_features=768, bias=True)
  (rating_predictor): Linear(in_features=768, out_features=5, bias=True)
  (softmax): Softmax(dim=1)
)
11-Nov-23 18:28:04:TwoTowerRankerRecommenderModel:{'opts': Namespace(datasetFolder='./datasets/ml-100k', modelName='beginner-swan', pretrainedHfModelName='distilbert-base-uncased', train_bs=16, val_bs=64, lr=0.0003, version='5032', n_rows=10000), 'runtime_args': ['--worker=3', '--device=auto']}
11-Nov-23 18:28:05:TwoTowerRankerRecommenderModel:{'train_size': 7500, 'val_size': 2500}
11-Nov-23 18:28:07:TwoTowerRankerRecommenderModel:model lightning TwoTowerRecommenderRankerLitModel(
  (user_preference_model): UserPreferencesModel(
    (pretrained_model): DistilBertModel(
      (embeddings): Embeddings(
        (word_embeddings): Embedding(30522, 768, padding_idx=0)
        (position_embeddings): Embedding(512, 768)
        (LayerNorm): LayerNorm((768,), eps=1e-12, elementwise_affine=True)
        (dropout): Dropout(p=0.1, inplace=False)
      )
      (transformer): Transformer(
        (layer): ModuleList(
          (0-5): 6 x TransformerBlock(
            (attention): MultiHeadSelfAttention(
              (dropout): Dropout(p=0.1, inplace=False)
              (q_lin): Linear(in_features=768, out_features=768, bias=True)
              (k_lin): Linear(in_features=768, out_features=768, bias=True)
              (v_lin): Linear(in_features=768, out_features=768, bias=True)
              (out_lin): Linear(in_features=768, out_features=768, bias=True)
            )
            (sa_layer_norm): LayerNorm((768,), eps=1e-12, elementwise_affine=True)
            (ffn): FFN(
              (dropout): Dropout(p=0.1, inplace=False)
              (lin1): Linear(in_features=768, out_features=3072, bias=True)
              (lin2): Linear(in_features=3072, out_features=768, bias=True)
              (activation): GELUActivation()
            )
            (output_layer_norm): LayerNorm((768,), eps=1e-12, elementwise_affine=True)
          )
        )
      )
    )
    (linear): Linear(in_features=768, out_features=768, bias=True)
    (dropout): Dropout(p=0.3, inplace=False)
    (clf): Linear(in_features=768, out_features=384, bias=True)
  )
  (content_preference_model): ContentPreferencesModel(
    (pretrained_model): DistilBertModel(
      (embeddings): Embeddings(
        (word_embeddings): Embedding(30522, 768, padding_idx=0)
        (position_embeddings): Embedding(512, 768)
        (LayerNorm): LayerNorm((768,), eps=1e-12, elementwise_affine=True)
        (dropout): Dropout(p=0.1, inplace=False)
      )
      (transformer): Transformer(
        (layer): ModuleList(
          (0-5): 6 x TransformerBlock(
            (attention): MultiHeadSelfAttention(
              (dropout): Dropout(p=0.1, inplace=False)
              (q_lin): Linear(in_features=768, out_features=768, bias=True)
              (k_lin): Linear(in_features=768, out_features=768, bias=True)
              (v_lin): Linear(in_features=768, out_features=768, bias=True)
              (out_lin): Linear(in_features=768, out_features=768, bias=True)
            )
            (sa_layer_norm): LayerNorm((768,), eps=1e-12, elementwise_affine=True)
            (ffn): FFN(
              (dropout): Dropout(p=0.1, inplace=False)
              (lin1): Linear(in_features=768, out_features=3072, bias=True)
              (lin2): Linear(in_features=3072, out_features=768, bias=True)
              (activation): GELUActivation()
            )
            (output_layer_norm): LayerNorm((768,), eps=1e-12, elementwise_affine=True)
          )
        )
      )
    )
    (linear): Linear(in_features=768, out_features=768, bias=True)
    (dropout): Dropout(p=0.3, inplace=False)
    (clf): Linear(in_features=768, out_features=384, bias=True)
  )
  (layer_normalizer): LayerNorm((768,), eps=1e-05, elementwise_affine=True)
  (light_se): LightSqueezeExicitationModel(
    (softmax): Softmax(dim=1)
    (excitation_layer): Linear(in_features=768, out_features=768, bias=False)
  )
  (combiner): Linear(in_features=768, out_features=768, bias=True)
  (dropout): Dropout(p=0.3, inplace=False)
  (classifier): Linear(in_features=768, out_features=768, bias=True)
  (rating_predictor): Linear(in_features=768, out_features=5, bias=True)
  (softmax): Softmax(dim=1)
)
11-Nov-23 18:28:19:TwoTowerRankerRecommenderModel:{'opts': Namespace(datasetFolder='./datasets/ml-100k', modelName='beginner-swan', pretrainedHfModelName='distilbert-base-uncased', train_bs=16, val_bs=64, lr=0.0003, version='8299', n_rows=10000), 'runtime_args': ['--worker=3', '--device=auto']}
11-Nov-23 18:28:20:TwoTowerRankerRecommenderModel:{'train_size': 7500, 'val_size': 2500}
11-Nov-23 18:28:22:TwoTowerRankerRecommenderModel:model lightning TwoTowerRecommenderRankerLitModel(
  (user_preference_model): UserPreferencesModel(
    (pretrained_model): DistilBertModel(
      (embeddings): Embeddings(
        (word_embeddings): Embedding(30522, 768, padding_idx=0)
        (position_embeddings): Embedding(512, 768)
        (LayerNorm): LayerNorm((768,), eps=1e-12, elementwise_affine=True)
        (dropout): Dropout(p=0.1, inplace=False)
      )
      (transformer): Transformer(
        (layer): ModuleList(
          (0-5): 6 x TransformerBlock(
            (attention): MultiHeadSelfAttention(
              (dropout): Dropout(p=0.1, inplace=False)
              (q_lin): Linear(in_features=768, out_features=768, bias=True)
              (k_lin): Linear(in_features=768, out_features=768, bias=True)
              (v_lin): Linear(in_features=768, out_features=768, bias=True)
              (out_lin): Linear(in_features=768, out_features=768, bias=True)
            )
            (sa_layer_norm): LayerNorm((768,), eps=1e-12, elementwise_affine=True)
            (ffn): FFN(
              (dropout): Dropout(p=0.1, inplace=False)
              (lin1): Linear(in_features=768, out_features=3072, bias=True)
              (lin2): Linear(in_features=3072, out_features=768, bias=True)
              (activation): GELUActivation()
            )
            (output_layer_norm): LayerNorm((768,), eps=1e-12, elementwise_affine=True)
          )
        )
      )
    )
    (linear): Linear(in_features=768, out_features=768, bias=True)
    (dropout): Dropout(p=0.3, inplace=False)
    (clf): Linear(in_features=768, out_features=384, bias=True)
  )
  (content_preference_model): ContentPreferencesModel(
    (pretrained_model): DistilBertModel(
      (embeddings): Embeddings(
        (word_embeddings): Embedding(30522, 768, padding_idx=0)
        (position_embeddings): Embedding(512, 768)
        (LayerNorm): LayerNorm((768,), eps=1e-12, elementwise_affine=True)
        (dropout): Dropout(p=0.1, inplace=False)
      )
      (transformer): Transformer(
        (layer): ModuleList(
          (0-5): 6 x TransformerBlock(
            (attention): MultiHeadSelfAttention(
              (dropout): Dropout(p=0.1, inplace=False)
              (q_lin): Linear(in_features=768, out_features=768, bias=True)
              (k_lin): Linear(in_features=768, out_features=768, bias=True)
              (v_lin): Linear(in_features=768, out_features=768, bias=True)
              (out_lin): Linear(in_features=768, out_features=768, bias=True)
            )
            (sa_layer_norm): LayerNorm((768,), eps=1e-12, elementwise_affine=True)
            (ffn): FFN(
              (dropout): Dropout(p=0.1, inplace=False)
              (lin1): Linear(in_features=768, out_features=3072, bias=True)
              (lin2): Linear(in_features=3072, out_features=768, bias=True)
              (activation): GELUActivation()
            )
            (output_layer_norm): LayerNorm((768,), eps=1e-12, elementwise_affine=True)
          )
        )
      )
    )
    (linear): Linear(in_features=768, out_features=768, bias=True)
    (dropout): Dropout(p=0.3, inplace=False)
    (clf): Linear(in_features=768, out_features=384, bias=True)
  )
  (layer_normalizer): LayerNorm((768,), eps=1e-05, elementwise_affine=True)
  (light_se): LightSqueezeExicitationModel(
    (softmax): Softmax(dim=1)
    (excitation_layer): Linear(in_features=768, out_features=768, bias=False)
  )
  (combiner): Linear(in_features=768, out_features=768, bias=True)
  (dropout): Dropout(p=0.3, inplace=False)
  (classifier): Linear(in_features=768, out_features=768, bias=True)
  (rating_predictor): Linear(in_features=768, out_features=5, bias=True)
  (softmax): Softmax(dim=1)
)
11-Nov-23 18:29:55:TwoTowerRankerRecommenderModel:{'opts': Namespace(datasetFolder='./datasets/ml-100k', modelName='beginner-swan', pretrainedHfModelName='distilbert-base-uncased', train_bs=16, val_bs=64, lr=0.0003, version='8698', n_rows=10000), 'runtime_args': ['--worker=3', '--device=auto']}
11-Nov-23 18:29:56:TwoTowerRankerRecommenderModel:{'train_size': 7500, 'val_size': 2500}
11-Nov-23 18:29:58:TwoTowerRankerRecommenderModel:model lightning TwoTowerRecommenderRankerLitModel(
  (user_preference_model): UserPreferencesModel(
    (pretrained_model): DistilBertModel(
      (embeddings): Embeddings(
        (word_embeddings): Embedding(30522, 768, padding_idx=0)
        (position_embeddings): Embedding(512, 768)
        (LayerNorm): LayerNorm((768,), eps=1e-12, elementwise_affine=True)
        (dropout): Dropout(p=0.1, inplace=False)
      )
      (transformer): Transformer(
        (layer): ModuleList(
          (0-5): 6 x TransformerBlock(
            (attention): MultiHeadSelfAttention(
              (dropout): Dropout(p=0.1, inplace=False)
              (q_lin): Linear(in_features=768, out_features=768, bias=True)
              (k_lin): Linear(in_features=768, out_features=768, bias=True)
              (v_lin): Linear(in_features=768, out_features=768, bias=True)
              (out_lin): Linear(in_features=768, out_features=768, bias=True)
            )
            (sa_layer_norm): LayerNorm((768,), eps=1e-12, elementwise_affine=True)
            (ffn): FFN(
              (dropout): Dropout(p=0.1, inplace=False)
              (lin1): Linear(in_features=768, out_features=3072, bias=True)
              (lin2): Linear(in_features=3072, out_features=768, bias=True)
              (activation): GELUActivation()
            )
            (output_layer_norm): LayerNorm((768,), eps=1e-12, elementwise_affine=True)
          )
        )
      )
    )
    (linear): Linear(in_features=768, out_features=768, bias=True)
    (dropout): Dropout(p=0.3, inplace=False)
    (clf): Linear(in_features=768, out_features=384, bias=True)
  )
  (content_preference_model): ContentPreferencesModel(
    (pretrained_model): DistilBertModel(
      (embeddings): Embeddings(
        (word_embeddings): Embedding(30522, 768, padding_idx=0)
        (position_embeddings): Embedding(512, 768)
        (LayerNorm): LayerNorm((768,), eps=1e-12, elementwise_affine=True)
        (dropout): Dropout(p=0.1, inplace=False)
      )
      (transformer): Transformer(
        (layer): ModuleList(
          (0-5): 6 x TransformerBlock(
            (attention): MultiHeadSelfAttention(
              (dropout): Dropout(p=0.1, inplace=False)
              (q_lin): Linear(in_features=768, out_features=768, bias=True)
              (k_lin): Linear(in_features=768, out_features=768, bias=True)
              (v_lin): Linear(in_features=768, out_features=768, bias=True)
              (out_lin): Linear(in_features=768, out_features=768, bias=True)
            )
            (sa_layer_norm): LayerNorm((768,), eps=1e-12, elementwise_affine=True)
            (ffn): FFN(
              (dropout): Dropout(p=0.1, inplace=False)
              (lin1): Linear(in_features=768, out_features=3072, bias=True)
              (lin2): Linear(in_features=3072, out_features=768, bias=True)
              (activation): GELUActivation()
            )
            (output_layer_norm): LayerNorm((768,), eps=1e-12, elementwise_affine=True)
          )
        )
      )
    )
    (linear): Linear(in_features=768, out_features=768, bias=True)
    (dropout): Dropout(p=0.3, inplace=False)
    (clf): Linear(in_features=768, out_features=384, bias=True)
  )
  (layer_normalizer): LayerNorm((768,), eps=1e-05, elementwise_affine=True)
  (light_se): LightSqueezeExicitationModel(
    (softmax): Softmax(dim=1)
    (excitation_layer): Linear(in_features=768, out_features=768, bias=False)
  )
  (combiner): Linear(in_features=768, out_features=768, bias=True)
  (dropout): Dropout(p=0.3, inplace=False)
  (classifier): Linear(in_features=768, out_features=768, bias=True)
  (rating_predictor): Linear(in_features=768, out_features=5, bias=True)
  (softmax): Softmax(dim=1)
)
11-Nov-23 18:30:18:TwoTowerRankerRecommenderModel:{'opts': Namespace(datasetFolder='./datasets/ml-100k', modelName='beginner-swan', pretrainedHfModelName='distilbert-base-uncased', train_bs=16, val_bs=64, lr=0.0003, version='4868', n_rows=10000), 'runtime_args': ['--worker=3', '--device=auto']}
11-Nov-23 18:30:18:TwoTowerRankerRecommenderModel:{'train_size': 7500, 'val_size': 2500}
11-Nov-23 18:30:21:TwoTowerRankerRecommenderModel:model lightning TwoTowerRecommenderRankerLitModel(
  (user_preference_model): UserPreferencesModel(
    (pretrained_model): DistilBertModel(
      (embeddings): Embeddings(
        (word_embeddings): Embedding(30522, 768, padding_idx=0)
        (position_embeddings): Embedding(512, 768)
        (LayerNorm): LayerNorm((768,), eps=1e-12, elementwise_affine=True)
        (dropout): Dropout(p=0.1, inplace=False)
      )
      (transformer): Transformer(
        (layer): ModuleList(
          (0-5): 6 x TransformerBlock(
            (attention): MultiHeadSelfAttention(
              (dropout): Dropout(p=0.1, inplace=False)
              (q_lin): Linear(in_features=768, out_features=768, bias=True)
              (k_lin): Linear(in_features=768, out_features=768, bias=True)
              (v_lin): Linear(in_features=768, out_features=768, bias=True)
              (out_lin): Linear(in_features=768, out_features=768, bias=True)
            )
            (sa_layer_norm): LayerNorm((768,), eps=1e-12, elementwise_affine=True)
            (ffn): FFN(
              (dropout): Dropout(p=0.1, inplace=False)
              (lin1): Linear(in_features=768, out_features=3072, bias=True)
              (lin2): Linear(in_features=3072, out_features=768, bias=True)
              (activation): GELUActivation()
            )
            (output_layer_norm): LayerNorm((768,), eps=1e-12, elementwise_affine=True)
          )
        )
      )
    )
    (linear): Linear(in_features=768, out_features=768, bias=True)
    (dropout): Dropout(p=0.3, inplace=False)
    (clf): Linear(in_features=768, out_features=384, bias=True)
  )
  (content_preference_model): ContentPreferencesModel(
    (pretrained_model): DistilBertModel(
      (embeddings): Embeddings(
        (word_embeddings): Embedding(30522, 768, padding_idx=0)
        (position_embeddings): Embedding(512, 768)
        (LayerNorm): LayerNorm((768,), eps=1e-12, elementwise_affine=True)
        (dropout): Dropout(p=0.1, inplace=False)
      )
      (transformer): Transformer(
        (layer): ModuleList(
          (0-5): 6 x TransformerBlock(
            (attention): MultiHeadSelfAttention(
              (dropout): Dropout(p=0.1, inplace=False)
              (q_lin): Linear(in_features=768, out_features=768, bias=True)
              (k_lin): Linear(in_features=768, out_features=768, bias=True)
              (v_lin): Linear(in_features=768, out_features=768, bias=True)
              (out_lin): Linear(in_features=768, out_features=768, bias=True)
            )
            (sa_layer_norm): LayerNorm((768,), eps=1e-12, elementwise_affine=True)
            (ffn): FFN(
              (dropout): Dropout(p=0.1, inplace=False)
              (lin1): Linear(in_features=768, out_features=3072, bias=True)
              (lin2): Linear(in_features=3072, out_features=768, bias=True)
              (activation): GELUActivation()
            )
            (output_layer_norm): LayerNorm((768,), eps=1e-12, elementwise_affine=True)
          )
        )
      )
    )
    (linear): Linear(in_features=768, out_features=768, bias=True)
    (dropout): Dropout(p=0.3, inplace=False)
    (clf): Linear(in_features=768, out_features=384, bias=True)
  )
  (layer_normalizer): LayerNorm((768,), eps=1e-05, elementwise_affine=True)
  (light_se): LightSqueezeExicitationModel(
    (softmax): Softmax(dim=1)
    (excitation_layer): Linear(in_features=768, out_features=768, bias=False)
  )
  (combiner): Linear(in_features=768, out_features=768, bias=True)
  (dropout): Dropout(p=0.3, inplace=False)
  (classifier): Linear(in_features=768, out_features=768, bias=True)
  (rating_predictor): Linear(in_features=768, out_features=5, bias=True)
  (softmax): Softmax(dim=1)
)
11-Nov-23 18:30:23:TwoTowerRankerRecommenderModel:model training will be initated....
11-Nov-23 18:30:31:TwoTowerRankerRecommenderModel:model training has been finished... outputs has been saved into the root-directory of current folder....
11-Nov-23 18:31:26:TwoTowerRankerRecommenderModel:{'opts': Namespace(datasetFolder='./datasets/ml-100k', modelName='beginner-swan', pretrainedHfModelName='distilbert-base-uncased', train_bs=16, val_bs=64, lr=0.0003, version='6524', n_rows=10000), 'runtime_args': ['--worker=3', '--device=auto']}
11-Nov-23 18:31:27:TwoTowerRankerRecommenderModel:{'train_size': 7500, 'val_size': 2500}
11-Nov-23 18:31:29:TwoTowerRankerRecommenderModel:model lightning TwoTowerRecommenderRankerLitModel(
  (user_preference_model): UserPreferencesModel(
    (pretrained_model): DistilBertModel(
      (embeddings): Embeddings(
        (word_embeddings): Embedding(30522, 768, padding_idx=0)
        (position_embeddings): Embedding(512, 768)
        (LayerNorm): LayerNorm((768,), eps=1e-12, elementwise_affine=True)
        (dropout): Dropout(p=0.1, inplace=False)
      )
      (transformer): Transformer(
        (layer): ModuleList(
          (0-5): 6 x TransformerBlock(
            (attention): MultiHeadSelfAttention(
              (dropout): Dropout(p=0.1, inplace=False)
              (q_lin): Linear(in_features=768, out_features=768, bias=True)
              (k_lin): Linear(in_features=768, out_features=768, bias=True)
              (v_lin): Linear(in_features=768, out_features=768, bias=True)
              (out_lin): Linear(in_features=768, out_features=768, bias=True)
            )
            (sa_layer_norm): LayerNorm((768,), eps=1e-12, elementwise_affine=True)
            (ffn): FFN(
              (dropout): Dropout(p=0.1, inplace=False)
              (lin1): Linear(in_features=768, out_features=3072, bias=True)
              (lin2): Linear(in_features=3072, out_features=768, bias=True)
              (activation): GELUActivation()
            )
            (output_layer_norm): LayerNorm((768,), eps=1e-12, elementwise_affine=True)
          )
        )
      )
    )
    (linear): Linear(in_features=768, out_features=768, bias=True)
    (dropout): Dropout(p=0.3, inplace=False)
    (clf): Linear(in_features=768, out_features=384, bias=True)
  )
  (content_preference_model): ContentPreferencesModel(
    (pretrained_model): DistilBertModel(
      (embeddings): Embeddings(
        (word_embeddings): Embedding(30522, 768, padding_idx=0)
        (position_embeddings): Embedding(512, 768)
        (LayerNorm): LayerNorm((768,), eps=1e-12, elementwise_affine=True)
        (dropout): Dropout(p=0.1, inplace=False)
      )
      (transformer): Transformer(
        (layer): ModuleList(
          (0-5): 6 x TransformerBlock(
            (attention): MultiHeadSelfAttention(
              (dropout): Dropout(p=0.1, inplace=False)
              (q_lin): Linear(in_features=768, out_features=768, bias=True)
              (k_lin): Linear(in_features=768, out_features=768, bias=True)
              (v_lin): Linear(in_features=768, out_features=768, bias=True)
              (out_lin): Linear(in_features=768, out_features=768, bias=True)
            )
            (sa_layer_norm): LayerNorm((768,), eps=1e-12, elementwise_affine=True)
            (ffn): FFN(
              (dropout): Dropout(p=0.1, inplace=False)
              (lin1): Linear(in_features=768, out_features=3072, bias=True)
              (lin2): Linear(in_features=3072, out_features=768, bias=True)
              (activation): GELUActivation()
            )
            (output_layer_norm): LayerNorm((768,), eps=1e-12, elementwise_affine=True)
          )
        )
      )
    )
    (linear): Linear(in_features=768, out_features=768, bias=True)
    (dropout): Dropout(p=0.3, inplace=False)
    (clf): Linear(in_features=768, out_features=384, bias=True)
  )
  (layer_normalizer): LayerNorm((768,), eps=1e-05, elementwise_affine=True)
  (light_se): LightSqueezeExicitationModel(
    (softmax): Softmax(dim=1)
    (excitation_layer): Linear(in_features=768, out_features=768, bias=False)
  )
  (combiner): Linear(in_features=768, out_features=768, bias=True)
  (dropout): Dropout(p=0.3, inplace=False)
  (classifier): Linear(in_features=768, out_features=768, bias=True)
  (rating_predictor): Linear(in_features=768, out_features=5, bias=True)
  (softmax): Softmax(dim=1)
)
11-Nov-23 18:31:32:TwoTowerRankerRecommenderModel:model training will be initated....
11-Nov-23 18:31:36:TwoTowerRankerRecommenderModel:model training has been finished... outputs has been saved into the root-directory of current folder....
11-Nov-23 18:31:55:TwoTowerRankerRecommenderModel:{'opts': Namespace(datasetFolder='./datasets/ml-100k', modelName='beginner-swan', pretrainedHfModelName='distilbert-base-uncased', train_bs=16, val_bs=64, lr=0.0003, version='6752', n_rows=10000), 'runtime_args': ['--worker=3', '--device=auto']}
…
