INFO:SentimentAnalysisLightning:SentimentAnalyzerDeepNeuralNetLightning(
  (model): SentimentAnalyzerDeepNeuralNet(
    (foundation_model): DistilBertForMaskedLM(
      (activation): GELUActivation()
      (distilbert): DistilBertModel(
        (embeddings): Embeddings(
          (word_embeddings): Embedding(30522, 768, padding_idx=0)
          (position_embeddings): Embedding(512, 768)
          (LayerNorm): LayerNorm((768,), eps=1e-12, elementwise_affine=True)
          (dropout): Dropout(p=0.1, inplace=False)
        )
        (transformer): Transformer(
          (layer): ModuleList(
            (0-5): 6 x TransformerBlock(
              (attention): MultiHeadSelfAttention(
                (dropout): Dropout(p=0.1, inplace=False)
                (q_lin): Linear(in_features=768, out_features=768, bias=True)
                (k_lin): Linear(in_features=768, out_features=768, bias=True)
                (v_lin): Linear(in_features=768, out_features=768, bias=True)
                (out_lin): Linear(in_features=768, out_features=768, bias=True)
              )
              (sa_layer_norm): LayerNorm((768,), eps=1e-12, elementwise_affine=True)
              (ffn): FFN(
                (dropout): Dropout(p=0.1, inplace=False)
                (lin1): Linear(in_features=768, out_features=3072, bias=True)
                (lin2): Linear(in_features=3072, out_features=768, bias=True)
                (activation): GELUActivation()
              )
              (output_layer_norm): LayerNorm((768,), eps=1e-12, elementwise_affine=True)
            )
          )
        )
      )
      (vocab_transform): Linear(in_features=768, out_features=768, bias=True)
      (vocab_layer_norm): LayerNorm((768,), eps=1e-12, elementwise_affine=True)
      (vocab_projector): Linear(in_features=768, out_features=30522, bias=True)
      (mlm_loss_fct): CrossEntropyLoss()
    )
    (sentiment_classifier_layer): Sequential(
      (0): Sequential(
        (0): Dropout(p=0.25, inplace=False)
        (1): MaxPool2d(kernel_size=(3, 3), stride=(2, 2), padding=(1, 1), dilation=1, ceil_mode=False)
        (2): Linear(in_features=15261, out_features=2048, bias=True)
        (3): Dropout(p=0.25, inplace=False)
        (4): Linear(in_features=2048, out_features=2048, bias=True)
        (5): LayerNorm((2048,), eps=1e-05, elementwise_affine=True)
        (6): MaxPool2d(kernel_size=(3, 3), stride=(2, 2), padding=(1, 1), dilation=1, ceil_mode=False)
        (7): ReLU()
        (8): Dropout(p=0.25, inplace=False)
      )
      (1): Sequential(
        (0): Flatten(start_dim=1, end_dim=-1)
        (1): Linear(in_features=8192, out_features=2048, bias=True)
        (2): Dropout(p=0.25, inplace=False)
        (3): Linear(in_features=2048, out_features=512, bias=True)
        (4): ReLU()
        (5): Linear(in_features=512, out_features=5, bias=True)
      )
    )
  )
)
INFO:SentimentAnalysisDatasetLit:================================================================================
INFO:SentimentAnalysisDatasetLit:shape: (124848, 5)
INFO:SentimentAnalysisDatasetLit:columns: Index(['PhraseId', 'SentenceId', 'Phrase', 'Sentiment', 'kfold'], dtype='object')
INFO:SentimentAnalysisDatasetLit:sample:
         PhraseId  SentenceId                                             Phrase  Sentiment  kfold
…
